node {
  name: "global_step"
  op: "Variable"
  attr {
    key: "_output_shapes"
    value {
      list {
        shape {
        }
      }
    }
  }
  attr {
    key: "container"
    value {
      s: ""
    }
  }
  attr {
    key: "dtype"
    value {
      type: DT_INT64
    }
  }
  attr {
    key: "shape"
    value {
      shape {
      }
    }
  }
  attr {
    key: "shared_name"
    value {
      s: ""
    }
  }
}
node {
  name: "global_step/Initializer/zeros"
  op: "Const"
  attr {
    key: "_class"
    value {
      list {
        s: "loc:@global_step"
      }
    }
  }
  attr {
    key: "_output_shapes"
    value {
      list {
        shape {
        }
      }
    }
  }
  attr {
    key: "dtype"
    value {
      type: DT_INT64
    }
  }
  attr {
    key: "value"
    value {
      tensor {
        dtype: DT_INT64
        tensor_shape {
        }
        int64_val: 0
      }
    }
  }
}
node {
  name: "global_step/Assign"
  op: "Assign"
  input: "global_step"
  input: "global_step/Initializer/zeros"
  attr {
    key: "T"
    value {
      type: DT_INT64
    }
  }
  attr {
    key: "_class"
    value {
      list {
        s: "loc:@global_step"
      }
    }
  }
  attr {
    key: "_output_shapes"
    value {
      list {
        shape {
        }
      }
    }
  }
  attr {
    key: "use_locking"
    value {
      b: true
    }
  }
  attr {
    key: "validate_shape"
    value {
      b: true
    }
  }
}
node {
  name: "global_step/read"
  op: "Identity"
  input: "global_step"
  attr {
    key: "T"
    value {
      type: DT_INT64
    }
  }
  attr {
    key: "_class"
    value {
      list {
        s: "loc:@global_step"
      }
    }
  }
  attr {
    key: "_output_shapes"
    value {
      list {
        shape {
        }
      }
    }
  }
}
node {
  name: "batch_processing/filename_queue/Const"
  op: "Const"
  attr {
    key: "_output_shapes"
    value {
      list {
        shape {
          dim {
            size: 128
          }
        }
      }
    }
  }
  attr {
    key: "dtype"
    value {
      type: DT_STRING
    }
  }
  attr {
    key: "value"
    value {
      tensor {
        dtype: DT_STRING
        tensor_shape {
          dim {
            size: 128
          }
        }
        string_val: "/data/imagenet-2012/imagenet-with-bbox-validation-00000-of-00128"
        string_val: "/data/imagenet-2012/imagenet-with-bbox-validation-00001-of-00128"
        string_val: "/data/imagenet-2012/imagenet-with-bbox-validation-00002-of-00128"
        string_val: "/data/imagenet-2012/imagenet-with-bbox-validation-00003-of-00128"
        string_val: "/data/imagenet-2012/imagenet-with-bbox-validation-00004-of-00128"
        string_val: "/data/imagenet-2012/imagenet-with-bbox-validation-00005-of-00128"
        string_val: "/data/imagenet-2012/imagenet-with-bbox-validation-00006-of-00128"
        string_val: "/data/imagenet-2012/imagenet-with-bbox-validation-00007-of-00128"
        string_val: "/data/imagenet-2012/imagenet-with-bbox-validation-00008-of-00128"
        string_val: "/data/imagenet-2012/imagenet-with-bbox-validation-00009-of-00128"
        string_val: "/data/imagenet-2012/imagenet-with-bbox-validation-00010-of-00128"
        string_val: "/data/imagenet-2012/imagenet-with-bbox-validation-00011-of-00128"
        string_val: "/data/imagenet-2012/imagenet-with-bbox-validation-00012-of-00128"
        string_val: "/data/imagenet-2012/imagenet-with-bbox-validation-00013-of-00128"
        string_val: "/data/imagenet-2012/imagenet-with-bbox-validation-00014-of-00128"
        string_val: "/data/imagenet-2012/imagenet-with-bbox-validation-00015-of-00128"
        string_val: "/data/imagenet-2012/imagenet-with-bbox-validation-00016-of-00128"
        string_val: "/data/imagenet-2012/imagenet-with-bbox-validation-00017-of-00128"
        string_val: "/data/imagenet-2012/imagenet-with-bbox-validation-00018-of-00128"
        string_val: "/data/imagenet-2012/imagenet-with-bbox-validation-00019-of-00128"
        string_val: "/data/imagenet-2012/imagenet-with-bbox-validation-00020-of-00128"
        string_val: "/data/imagenet-2012/imagenet-with-bbox-validation-00021-of-00128"
        string_val: "/data/imagenet-2012/imagenet-with-bbox-validation-00022-of-00128"
        string_val: "/data/imagenet-2012/imagenet-with-bbox-validation-00023-of-00128"
        string_val: "/data/imagenet-2012/imagenet-with-bbox-validation-00024-of-00128"
        string_val: "/data/imagenet-2012/imagenet-with-bbox-validation-00025-of-00128"
        string_val: "/data/imagenet-2012/imagenet-with-bbox-validation-00026-of-00128"
        string_val: "/data/imagenet-2012/imagenet-with-bbox-validation-00027-of-00128"
        string_val: "/data/imagenet-2012/imagenet-with-bbox-validation-00028-of-00128"
        string_val: "/data/imagenet-2012/imagenet-with-bbox-validation-00029-of-00128"
        string_val: "/data/imagenet-2012/imagenet-with-bbox-validation-00030-of-00128"
        string_val: "/data/imagenet-2012/imagenet-with-bbox-validation-00031-of-00128"
        string_val: "/data/imagenet-2012/imagenet-with-bbox-validation-00032-of-00128"
        string_val: "/data/imagenet-2012/imagenet-with-bbox-validation-00033-of-00128"
        string_val: "/data/imagenet-2012/imagenet-with-bbox-validation-00034-of-00128"
        string_val: "/data/imagenet-2012/imagenet-with-bbox-validation-00035-of-00128"
        string_val: "/data/imagenet-2012/imagenet-with-bbox-validation-00036-of-00128"
        string_val: "/data/imagenet-2012/imagenet-with-bbox-validation-00037-of-00128"
        string_val: "/data/imagenet-2012/imagenet-with-bbox-validation-00038-of-00128"
        string_val: "/data/imagenet-2012/imagenet-with-bbox-validation-00039-of-00128"
        string_val: "/data/imagenet-2012/imagenet-with-bbox-validation-00040-of-00128"
        string_val: "/data/imagenet-2012/imagenet-with-bbox-validation-00041-of-00128"
        string_val: "/data/imagenet-2012/imagenet-with-bbox-validation-00042-of-00128"
        string_val: "/data/imagenet-2012/imagenet-with-bbox-validation-00043-of-00128"
        string_val: "/data/imagenet-2012/imagenet-with-bbox-validation-00044-of-00128"
        string_val: "/data/imagenet-2012/imagenet-with-bbox-validation-00045-of-00128"
        string_val: "/data/imagenet-2012/imagenet-with-bbox-validation-00046-of-00128"
        string_val: "/data/imagenet-2012/imagenet-with-bbox-validation-00047-of-00128"
        string_val: "/data/imagenet-2012/imagenet-with-bbox-validation-00048-of-00128"
        string_val: "/data/imagenet-2012/imagenet-with-bbox-validation-00049-of-00128"
        string_val: "/data/imagenet-2012/imagenet-with-bbox-validation-00050-of-00128"
        string_val: "/data/imagenet-2012/imagenet-with-bbox-validation-00051-of-00128"
        string_val: "/data/imagenet-2012/imagenet-with-bbox-validation-00052-of-00128"
        string_val: "/data/imagenet-2012/imagenet-with-bbox-validation-00053-of-00128"
        string_val: "/data/imagenet-2012/imagenet-with-bbox-validation-00054-of-00128"
        string_val: "/data/imagenet-2012/imagenet-with-bbox-validation-00055-of-00128"
        string_val: "/data/imagenet-2012/imagenet-with-bbox-validation-00056-of-00128"
        string_val: "/data/imagenet-2012/imagenet-with-bbox-validation-00057-of-00128"
        string_val: "/data/imagenet-2012/imagenet-with-bbox-validation-00058-of-00128"
        string_val: "/data/imagenet-2012/imagenet-with-bbox-validation-00059-of-00128"
        string_val: "/data/imagenet-2012/imagenet-with-bbox-validation-00060-of-00128"
        string_val: "/data/imagenet-2012/imagenet-with-bbox-validation-00061-of-00128"
        string_val: "/data/imagenet-2012/imagenet-with-bbox-validation-00062-of-00128"
        string_val: "/data/imagenet-2012/imagenet-with-bbox-validation-00063-of-00128"
        string_val: "/data/imagenet-2012/imagenet-with-bbox-validation-00064-of-00128"
        string_val: "/data/imagenet-2012/imagenet-with-bbox-validation-00065-of-00128"
        string_val: "/data/imagenet-2012/imagenet-with-bbox-validation-00066-of-00128"
        string_val: "/data/imagenet-2012/imagenet-with-bbox-validation-00067-of-00128"
        string_val: "/data/imagenet-2012/imagenet-with-bbox-validation-00068-of-00128"
        string_val: "/data/imagenet-2012/imagenet-with-bbox-validation-00069-of-00128"
        string_val: "/data/imagenet-2012/imagenet-with-bbox-validation-00070-of-00128"
        string_val: "/data/imagenet-2012/imagenet-with-bbox-validation-00071-of-00128"
        string_val: "/data/imagenet-2012/imagenet-with-bbox-validation-00072-of-00128"
        string_val: "/data/imagenet-2012/imagenet-with-bbox-validation-00073-of-00128"
        string_val: "/data/imagenet-2012/imagenet-with-bbox-validation-00074-of-00128"
        string_val: "/data/imagenet-2012/imagenet-with-bbox-validation-00075-of-00128"
        string_val: "/data/imagenet-2012/imagenet-with-bbox-validation-00076-of-00128"
        string_val: "/data/imagenet-2012/imagenet-with-bbox-validation-00077-of-00128"
        string_val: "/data/imagenet-2012/imagenet-with-bbox-validation-00078-of-00128"
        string_val: "/data/imagenet-2012/imagenet-with-bbox-validation-00079-of-00128"
        string_val: "/data/imagenet-2012/imagenet-with-bbox-validation-00080-of-00128"
        string_val: "/data/imagenet-2012/imagenet-with-bbox-validation-00081-of-00128"
        string_val: "/data/imagenet-2012/imagenet-with-bbox-validation-00082-of-00128"
        string_val: "/data/imagenet-2012/imagenet-with-bbox-validation-00083-of-00128"
        string_val: "/data/imagenet-2012/imagenet-with-bbox-validation-00084-of-00128"
        string_val: "/data/imagenet-2012/imagenet-with-bbox-validation-00085-of-00128"
        string_val: "/data/imagenet-2012/imagenet-with-bbox-validation-00086-of-00128"
        string_val: "/data/imagenet-2012/imagenet-with-bbox-validation-00087-of-00128"
        string_val: "/data/imagenet-2012/imagenet-with-bbox-validation-00088-of-00128"
        string_val: "/data/imagenet-2012/imagenet-with-bbox-validation-00089-of-00128"
        string_val: "/data/imagenet-2012/imagenet-with-bbox-validation-00090-of-00128"
        string_val: "/data/imagenet-2012/imagenet-with-bbox-validation-00091-of-00128"
        string_val: "/data/imagenet-2012/imagenet-with-bbox-validation-00092-of-00128"
        string_val: "/data/imagenet-2012/imagenet-with-bbox-validation-00093-of-00128"
        string_val: "/data/imagenet-2012/imagenet-with-bbox-validation-00094-of-00128"
        string_val: "/data/imagenet-2012/imagenet-with-bbox-validation-00095-of-00128"
        string_val: "/data/imagenet-2012/imagenet-with-bbox-validation-00096-of-00128"
        string_val: "/data/imagenet-2012/imagenet-with-bbox-validation-00097-of-00128"
        string_val: "/data/imagenet-2012/imagenet-with-bbox-validation-00098-of-00128"
        string_val: "/data/imagenet-2012/imagenet-with-bbox-validation-00099-of-00128"
        string_val: "/data/imagenet-2012/imagenet-with-bbox-validation-00100-of-00128"
        string_val: "/data/imagenet-2012/imagenet-with-bbox-validation-00101-of-00128"
        string_val: "/data/imagenet-2012/imagenet-with-bbox-validation-00102-of-00128"
        string_val: "/data/imagenet-2012/imagenet-with-bbox-validation-00103-of-00128"
        string_val: "/data/imagenet-2012/imagenet-with-bbox-validation-00104-of-00128"
        string_val: "/data/imagenet-2012/imagenet-with-bbox-validation-00105-of-00128"
        string_val: "/data/imagenet-2012/imagenet-with-bbox-validation-00106-of-00128"
        string_val: "/data/imagenet-2012/imagenet-with-bbox-validation-00107-of-00128"
        string_val: "/data/imagenet-2012/imagenet-with-bbox-validation-00108-of-00128"
        string_val: "/data/imagenet-2012/imagenet-with-bbox-validation-00109-of-00128"
        string_val: "/data/imagenet-2012/imagenet-with-bbox-validation-00110-of-00128"
        string_val: "/data/imagenet-2012/imagenet-with-bbox-validation-00111-of-00128"
        string_val: "/data/imagenet-2012/imagenet-with-bbox-validation-00112-of-00128"
        string_val: "/data/imagenet-2012/imagenet-with-bbox-validation-00113-of-00128"
        string_val: "/data/imagenet-2012/imagenet-with-bbox-validation-00114-of-00128"
        string_val: "/data/imagenet-2012/imagenet-with-bbox-validation-00115-of-00128"
        string_val: "/data/imagenet-2012/imagenet-with-bbox-validation-00116-of-00128"
        string_val: "/data/imagenet-2012/imagenet-with-bbox-validation-00117-of-00128"
        string_val: "/data/imagenet-2012/imagenet-with-bbox-validation-00118-of-00128"
        string_val: "/data/imagenet-2012/imagenet-with-bbox-validation-00119-of-00128"
        string_val: "/data/imagenet-2012/imagenet-with-bbox-validation-00120-of-00128"
        string_val: "/data/imagenet-2012/imagenet-with-bbox-validation-00121-of-00128"
        string_val: "/data/imagenet-2012/imagenet-with-bbox-validation-00122-of-00128"
        string_val: "/data/imagenet-2012/imagenet-with-bbox-validation-00123-of-00128"
        string_val: "/data/imagenet-2012/imagenet-with-bbox-validation-00124-of-00128"
        string_val: "/data/imagenet-2012/imagenet-with-bbox-validation-00125-of-00128"
        string_val: "/data/imagenet-2012/imagenet-with-bbox-validation-00126-of-00128"
        string_val: "/data/imagenet-2012/imagenet-with-bbox-validation-00127-of-00128"
      }
    }
  }
}
node {
  name: "batch_processing/filename_queue/Size"
  op: "Const"
  attr {
    key: "_output_shapes"
    value {
      list {
        shape {
        }
      }
    }
  }
  attr {
    key: "dtype"
    value {
      type: DT_INT32
    }
  }
  attr {
    key: "value"
    value {
      tensor {
        dtype: DT_INT32
        tensor_shape {
        }
        int_val: 128
      }
    }
  }
}
node {
  name: "batch_processing/filename_queue/Greater/y"
  op: "Const"
  attr {
    key: "_output_shapes"
    value {
      list {
        shape {
        }
      }
    }
  }
  attr {
    key: "dtype"
    value {
      type: DT_INT32
    }
  }
  attr {
    key: "value"
    value {
      tensor {
        dtype: DT_INT32
        tensor_shape {
        }
        int_val: 0
      }
    }
  }
}
node {
  name: "batch_processing/filename_queue/Greater"
  op: "Greater"
  input: "batch_processing/filename_queue/Size"
  input: "batch_processing/filename_queue/Greater/y"
  attr {
    key: "T"
    value {
      type: DT_INT32
    }
  }
  attr {
    key: "_output_shapes"
    value {
      list {
        shape {
        }
      }
    }
  }
}
node {
  name: "batch_processing/filename_queue/Assert/data_0"
  op: "Const"
  attr {
    key: "_output_shapes"
    value {
      list {
        shape {
        }
      }
    }
  }
  attr {
    key: "dtype"
    value {
      type: DT_STRING
    }
  }
  attr {
    key: "value"
    value {
      tensor {
        dtype: DT_STRING
        tensor_shape {
        }
        string_val: "string_input_producer requires a non-null input tensor"
      }
    }
  }
}
node {
  name: "batch_processing/filename_queue/Assert"
  op: "Assert"
  input: "batch_processing/filename_queue/Greater"
  input: "batch_processing/filename_queue/Assert/data_0"
  attr {
    key: "T"
    value {
      list {
        type: DT_STRING
      }
    }
  }
  attr {
    key: "summarize"
    value {
      i: 3
    }
  }
}
node {
  name: "batch_processing/filename_queue/Identity"
  op: "Identity"
  input: "batch_processing/filename_queue/Const"
  input: "^batch_processing/filename_queue/Assert"
  attr {
    key: "T"
    value {
      type: DT_STRING
    }
  }
  attr {
    key: "_output_shapes"
    value {
      list {
        shape {
          dim {
            size: 128
          }
        }
      }
    }
  }
}
node {
  name: "batch_processing/filename_queue"
  op: "FIFOQueue"
  attr {
    key: "_output_shapes"
    value {
      list {
        shape {
        }
      }
    }
  }
  attr {
    key: "capacity"
    value {
      i: 1
    }
  }
  attr {
    key: "component_types"
    value {
      list {
        type: DT_STRING
      }
    }
  }
  attr {
    key: "container"
    value {
      s: ""
    }
  }
  attr {
    key: "shapes"
    value {
      list {
        shape {
        }
      }
    }
  }
  attr {
    key: "shared_name"
    value {
      s: ""
    }
  }
}
node {
  name: "batch_processing/filename_queue/filename_queue_EnqueueMany"
  op: "QueueEnqueueMany"
  input: "batch_processing/filename_queue"
  input: "batch_processing/filename_queue/Identity"
  attr {
    key: "Tcomponents"
    value {
      list {
        type: DT_STRING
      }
    }
  }
  attr {
    key: "_class"
    value {
      list {
        s: "loc:@batch_processing/filename_queue"
      }
    }
  }
  attr {
    key: "timeout_ms"
    value {
      i: -1
    }
  }
}
node {
  name: "batch_processing/filename_queue/filename_queue_Close"
  op: "QueueClose"
  input: "batch_processing/filename_queue"
  attr {
    key: "_class"
    value {
      list {
        s: "loc:@batch_processing/filename_queue"
      }
    }
  }
  attr {
    key: "cancel_pending_enqueues"
    value {
      b: false
    }
  }
}
node {
  name: "batch_processing/filename_queue/filename_queue_Close_1"
  op: "QueueClose"
  input: "batch_processing/filename_queue"
  attr {
    key: "_class"
    value {
      list {
        s: "loc:@batch_processing/filename_queue"
      }
    }
  }
  attr {
    key: "cancel_pending_enqueues"
    value {
      b: true
    }
  }
}
node {
  name: "batch_processing/filename_queue/filename_queue_Size"
  op: "QueueSize"
  input: "batch_processing/filename_queue"
  attr {
    key: "_class"
    value {
      list {
        s: "loc:@batch_processing/filename_queue"
      }
    }
  }
  attr {
    key: "_output_shapes"
    value {
      list {
        shape {
        }
      }
    }
  }
}
node {
  name: "batch_processing/filename_queue/Cast"
  op: "Cast"
  input: "batch_processing/filename_queue/filename_queue_Size"
  attr {
    key: "DstT"
    value {
      type: DT_FLOAT
    }
  }
  attr {
    key: "SrcT"
    value {
      type: DT_INT32
    }
  }
  attr {
    key: "_output_shapes"
    value {
      list {
        shape {
        }
      }
    }
  }
}
node {
  name: "batch_processing/filename_queue/mul/y"
  op: "Const"
  attr {
    key: "_output_shapes"
    value {
      list {
        shape {
        }
      }
    }
  }
  attr {
    key: "dtype"
    value {
      type: DT_FLOAT
    }
  }
  attr {
    key: "value"
    value {
      tensor {
        dtype: DT_FLOAT
        tensor_shape {
        }
        float_val: 1.0
      }
    }
  }
}
node {
  name: "batch_processing/filename_queue/mul"
  op: "Mul"
  input: "batch_processing/filename_queue/Cast"
  input: "batch_processing/filename_queue/mul/y"
  attr {
    key: "T"
    value {
      type: DT_FLOAT
    }
  }
  attr {
    key: "_output_shapes"
    value {
      list {
        shape {
        }
      }
    }
  }
}
node {
  name: "batch_processing/filename_queue/ScalarSummary/tags"
  op: "Const"
  attr {
    key: "_output_shapes"
    value {
      list {
        shape {
        }
      }
    }
  }
  attr {
    key: "dtype"
    value {
      type: DT_STRING
    }
  }
  attr {
    key: "value"
    value {
      tensor {
        dtype: DT_STRING
        tensor_shape {
        }
        string_val: "queue/batch_processing/filename_queue/fraction_of_1_full"
      }
    }
  }
}
node {
  name: "batch_processing/filename_queue/ScalarSummary"
  op: "ScalarSummary"
  input: "batch_processing/filename_queue/ScalarSummary/tags"
  input: "batch_processing/filename_queue/mul"
  attr {
    key: "T"
    value {
      type: DT_FLOAT
    }
  }
  attr {
    key: "_output_shapes"
    value {
      list {
        shape {
        }
      }
    }
  }
}
node {
  name: "batch_processing/fifo_examples_queue"
  op: "FIFOQueue"
  attr {
    key: "_output_shapes"
    value {
      list {
        shape {
        }
      }
    }
  }
  attr {
    key: "capacity"
    value {
      i: 1124
    }
  }
  attr {
    key: "component_types"
    value {
      list {
        type: DT_STRING
      }
    }
  }
  attr {
    key: "container"
    value {
      s: ""
    }
  }
  attr {
    key: "shapes"
    value {
      list {
      }
    }
  }
  attr {
    key: "shared_name"
    value {
      s: ""
    }
  }
}
node {
  name: "batch_processing/fifo_examples_queue_Size"
  op: "QueueSize"
  input: "batch_processing/fifo_examples_queue"
  attr {
    key: "_class"
    value {
      list {
        s: "loc:@batch_processing/fifo_examples_queue"
      }
    }
  }
  attr {
    key: "_output_shapes"
    value {
      list {
        shape {
        }
      }
    }
  }
}
node {
  name: "batch_processing/ToFloat"
  op: "Cast"
  input: "batch_processing/fifo_examples_queue_Size"
  attr {
    key: "DstT"
    value {
      type: DT_FLOAT
    }
  }
  attr {
    key: "SrcT"
    value {
      type: DT_INT32
    }
  }
  attr {
    key: "_output_shapes"
    value {
      list {
        shape {
        }
      }
    }
  }
}
node {
  name: "batch_processing/mul/y"
  op: "Const"
  attr {
    key: "_output_shapes"
    value {
      list {
        shape {
        }
      }
    }
  }
  attr {
    key: "dtype"
    value {
      type: DT_FLOAT
    }
  }
  attr {
    key: "value"
    value {
      tensor {
        dtype: DT_FLOAT
        tensor_shape {
        }
        float_val: 0.000889679708052
      }
    }
  }
}
node {
  name: "batch_processing/mul"
  op: "Mul"
  input: "batch_processing/ToFloat"
  input: "batch_processing/mul/y"
  attr {
    key: "T"
    value {
      type: DT_FLOAT
    }
  }
  attr {
    key: "_output_shapes"
    value {
      list {
        shape {
        }
      }
    }
  }
}
node {
  name: "batch_processing/ScalarSummary/tags"
  op: "Const"
  attr {
    key: "_output_shapes"
    value {
      list {
        shape {
        }
      }
    }
  }
  attr {
    key: "dtype"
    value {
      type: DT_STRING
    }
  }
  attr {
    key: "value"
    value {
      tensor {
        dtype: DT_STRING
        tensor_shape {
        }
        string_val: "queue/batch_processing/fifo_examples_queue/fraction_of_1124_full"
      }
    }
  }
}
node {
  name: "batch_processing/ScalarSummary"
  op: "ScalarSummary"
  input: "batch_processing/ScalarSummary/tags"
  input: "batch_processing/mul"
  attr {
    key: "T"
    value {
      type: DT_FLOAT
    }
  }
  attr {
    key: "_output_shapes"
    value {
      list {
        shape {
        }
      }
    }
  }
}
node {
  name: "batch_processing/SSTableReader"
  op: "SSTableReader"
  attr {
    key: "_output_shapes"
    value {
      list {
        shape {
          unknown_rank: true
        }
      }
    }
  }
  attr {
    key: "container"
    value {
      s: ""
    }
  }
  attr {
    key: "key_prefix"
    value {
      s: ""
    }
  }
  attr {
    key: "shared_name"
    value {
      s: ""
    }
  }
}
node {
  name: "batch_processing/ReaderRead"
  op: "ReaderRead"
  input: "batch_processing/SSTableReader"
  input: "batch_processing/filename_queue"
  attr {
    key: "_class"
    value {
      list {
        s: "loc:@batch_processing/SSTableReader"
        s: "loc:@batch_processing/filename_queue"
      }
    }
  }
  attr {
    key: "_output_shapes"
    value {
      list {
        shape {
        }
        shape {
        }
      }
    }
  }
}
node {
  name: "batch_processing/ParseSingleExample/ExpandDims/dim"
  op: "Const"
  attr {
    key: "_output_shapes"
    value {
      list {
        shape {
        }
      }
    }
  }
  attr {
    key: "dtype"
    value {
      type: DT_INT32
    }
  }
  attr {
    key: "value"
    value {
      tensor {
        dtype: DT_INT32
        tensor_shape {
        }
        int_val: 0
      }
    }
  }
}
node {
  name: "batch_processing/ParseSingleExample/ExpandDims"
  op: "ExpandDims"
  input: "batch_processing/ReaderRead:1"
  input: "batch_processing/ParseSingleExample/ExpandDims/dim"
  attr {
    key: "T"
    value {
      type: DT_STRING
    }
  }
  attr {
    key: "_output_shapes"
    value {
      list {
        shape {
          dim {
            size: 1
          }
        }
      }
    }
  }
}
node {
  name: "batch_processing/ParseSingleExample/ParseExample/key_image/class/label"
  op: "Const"
  attr {
    key: "_output_shapes"
    value {
      list {
        shape {
        }
      }
    }
  }
  attr {
    key: "dtype"
    value {
      type: DT_INT64
    }
  }
  attr {
    key: "value"
    value {
      tensor {
        dtype: DT_INT64
        tensor_shape {
        }
        int64_val: -1
      }
    }
  }
}
node {
  name: "batch_processing/ParseSingleExample/ParseExample/Reshape/shape"
  op: "Const"
  attr {
    key: "_output_shapes"
    value {
      list {
        shape {
          dim {
            size: 1
          }
        }
      }
    }
  }
  attr {
    key: "dtype"
    value {
      type: DT_INT32
    }
  }
  attr {
    key: "value"
    value {
      tensor {
        dtype: DT_INT32
        tensor_shape {
          dim {
            size: 1
          }
        }
        int_val: 1
      }
    }
  }
}
node {
  name: "batch_processing/ParseSingleExample/ParseExample/Reshape"
  op: "Reshape"
  input: "batch_processing/ParseSingleExample/ParseExample/key_image/class/label"
  input: "batch_processing/ParseSingleExample/ParseExample/Reshape/shape"
  attr {
    key: "T"
    value {
      type: DT_INT64
    }
  }
  attr {
    key: "_output_shapes"
    value {
      list {
        shape {
          dim {
            size: 1
          }
        }
      }
    }
  }
}
node {
  name: "batch_processing/ParseSingleExample/ParseExample/key_image/class/text"
  op: "Const"
  attr {
    key: "_output_shapes"
    value {
      list {
        shape {
        }
      }
    }
  }
  attr {
    key: "dtype"
    value {
      type: DT_STRING
    }
  }
  attr {
    key: "value"
    value {
      tensor {
        dtype: DT_STRING
        tensor_shape {
        }
        string_val: ""
      }
    }
  }
}
node {
  name: "batch_processing/ParseSingleExample/ParseExample/Reshape_1/shape"
  op: "Const"
  attr {
    key: "_output_shapes"
    value {
      list {
        shape {
          dim {
          }
        }
      }
    }
  }
  attr {
    key: "dtype"
    value {
      type: DT_INT32
    }
  }
  attr {
    key: "value"
    value {
      tensor {
        dtype: DT_INT32
        tensor_shape {
          dim {
          }
        }
      }
    }
  }
}
node {
  name: "batch_processing/ParseSingleExample/ParseExample/Reshape_1"
  op: "Reshape"
  input: "batch_processing/ParseSingleExample/ParseExample/key_image/class/text"
  input: "batch_processing/ParseSingleExample/ParseExample/Reshape_1/shape"
  attr {
    key: "T"
    value {
      type: DT_STRING
    }
  }
  attr {
    key: "_output_shapes"
    value {
      list {
        shape {
        }
      }
    }
  }
}
node {
  name: "batch_processing/ParseSingleExample/ParseExample/key_image/encoded"
  op: "Const"
  attr {
    key: "_output_shapes"
    value {
      list {
        shape {
        }
      }
    }
  }
  attr {
    key: "dtype"
    value {
      type: DT_STRING
    }
  }
  attr {
    key: "value"
    value {
      tensor {
        dtype: DT_STRING
        tensor_shape {
        }
        string_val: ""
      }
    }
  }
}
node {
  name: "batch_processing/ParseSingleExample/ParseExample/Reshape_2/shape"
  op: "Const"
  attr {
    key: "_output_shapes"
    value {
      list {
        shape {
          dim {
          }
        }
      }
    }
  }
  attr {
    key: "dtype"
    value {
      type: DT_INT32
    }
  }
  attr {
    key: "value"
    value {
      tensor {
        dtype: DT_INT32
        tensor_shape {
          dim {
          }
        }
      }
    }
  }
}
node {
  name: "batch_processing/ParseSingleExample/ParseExample/Reshape_2"
  op: "Reshape"
  input: "batch_processing/ParseSingleExample/ParseExample/key_image/encoded"
  input: "batch_processing/ParseSingleExample/ParseExample/Reshape_2/shape"
  attr {
    key: "T"
    value {
      type: DT_STRING
    }
  }
  attr {
    key: "_output_shapes"
    value {
      list {
        shape {
        }
      }
    }
  }
}
node {
  name: "batch_processing/ParseSingleExample/ParseExample/ParseExample/names"
  op: "Const"
  attr {
    key: "_output_shapes"
    value {
      list {
        shape {
          dim {
          }
        }
      }
    }
  }
  attr {
    key: "dtype"
    value {
      type: DT_STRING
    }
  }
  attr {
    key: "value"
    value {
      tensor {
        dtype: DT_STRING
        tensor_shape {
          dim {
          }
        }
      }
    }
  }
}
node {
  name: "batch_processing/ParseSingleExample/ParseExample/ParseExample/sparse_keys_0"
  op: "Const"
  attr {
    key: "_output_shapes"
    value {
      list {
        shape {
        }
      }
    }
  }
  attr {
    key: "dtype"
    value {
      type: DT_STRING
    }
  }
  attr {
    key: "value"
    value {
      tensor {
        dtype: DT_STRING
        tensor_shape {
        }
        string_val: "image/object/bbox/xmax"
      }
    }
  }
}
node {
  name: "batch_processing/ParseSingleExample/ParseExample/ParseExample/sparse_keys_1"
  op: "Const"
  attr {
    key: "_output_shapes"
    value {
      list {
        shape {
        }
      }
    }
  }
  attr {
    key: "dtype"
    value {
      type: DT_STRING
    }
  }
  attr {
    key: "value"
    value {
      tensor {
        dtype: DT_STRING
        tensor_shape {
        }
        string_val: "image/object/bbox/xmin"
      }
    }
  }
}
node {
  name: "batch_processing/ParseSingleExample/ParseExample/ParseExample/sparse_keys_2"
  op: "Const"
  attr {
    key: "_output_shapes"
    value {
      list {
        shape {
        }
      }
    }
  }
  attr {
    key: "dtype"
    value {
      type: DT_STRING
    }
  }
  attr {
    key: "value"
    value {
      tensor {
        dtype: DT_STRING
        tensor_shape {
        }
        string_val: "image/object/bbox/ymax"
      }
    }
  }
}
node {
  name: "batch_processing/ParseSingleExample/ParseExample/ParseExample/sparse_keys_3"
  op: "Const"
  attr {
    key: "_output_shapes"
    value {
      list {
        shape {
        }
      }
    }
  }
  attr {
    key: "dtype"
    value {
      type: DT_STRING
    }
  }
  attr {
    key: "value"
    value {
      tensor {
        dtype: DT_STRING
        tensor_shape {
        }
        string_val: "image/object/bbox/ymin"
      }
    }
  }
}
node {
  name: "batch_processing/ParseSingleExample/ParseExample/ParseExample/dense_keys_0"
  op: "Const"
  attr {
    key: "_output_shapes"
    value {
      list {
        shape {
        }
      }
    }
  }
  attr {
    key: "dtype"
    value {
      type: DT_STRING
    }
  }
  attr {
    key: "value"
    value {
      tensor {
        dtype: DT_STRING
        tensor_shape {
        }
        string_val: "image/class/label"
      }
    }
  }
}
node {
  name: "batch_processing/ParseSingleExample/ParseExample/ParseExample/dense_keys_1"
  op: "Const"
  attr {
    key: "_output_shapes"
    value {
      list {
        shape {
        }
      }
    }
  }
  attr {
    key: "dtype"
    value {
      type: DT_STRING
    }
  }
  attr {
    key: "value"
    value {
      tensor {
        dtype: DT_STRING
        tensor_shape {
        }
        string_val: "image/class/text"
      }
    }
  }
}
node {
  name: "batch_processing/ParseSingleExample/ParseExample/ParseExample/dense_keys_2"
  op: "Const"
  attr {
    key: "_output_shapes"
    value {
      list {
        shape {
        }
      }
    }
  }
  attr {
    key: "dtype"
    value {
      type: DT_STRING
    }
  }
  attr {
    key: "value"
    value {
      tensor {
        dtype: DT_STRING
        tensor_shape {
        }
        string_val: "image/encoded"
      }
    }
  }
}
node {
  name: "batch_processing/ParseSingleExample/ParseExample/ParseExample"
  op: "ParseExample"
  input: "batch_processing/ParseSingleExample/ExpandDims"
  input: "batch_processing/ParseSingleExample/ParseExample/ParseExample/names"
  input: "batch_processing/ParseSingleExample/ParseExample/ParseExample/sparse_keys_0"
  input: "batch_processing/ParseSingleExample/ParseExample/ParseExample/sparse_keys_1"
  input: "batch_processing/ParseSingleExample/ParseExample/ParseExample/sparse_keys_2"
  input: "batch_processing/ParseSingleExample/ParseExample/ParseExample/sparse_keys_3"
  input: "batch_processing/ParseSingleExample/ParseExample/ParseExample/dense_keys_0"
  input: "batch_processing/ParseSingleExample/ParseExample/ParseExample/dense_keys_1"
  input: "batch_processing/ParseSingleExample/ParseExample/ParseExample/dense_keys_2"
  input: "batch_processing/ParseSingleExample/ParseExample/Reshape"
  input: "batch_processing/ParseSingleExample/ParseExample/Reshape_1"
  input: "batch_processing/ParseSingleExample/ParseExample/Reshape_2"
  attr {
    key: "Ndense"
    value {
      i: 3
    }
  }
  attr {
    key: "Nsparse"
    value {
      i: 4
    }
  }
  attr {
    key: "Tdense"
    value {
      list {
        type: DT_INT64
        type: DT_STRING
        type: DT_STRING
      }
    }
  }
  attr {
    key: "_output_shapes"
    value {
      list {
        shape {
          dim {
            size: -1
          }
          dim {
            size: 2
          }
        }
        shape {
          dim {
            size: -1
          }
          dim {
            size: 2
          }
        }
        shape {
          dim {
            size: -1
          }
          dim {
            size: 2
          }
        }
        shape {
          dim {
            size: -1
          }
          dim {
            size: 2
          }
        }
        shape {
          dim {
            size: -1
          }
        }
        shape {
          dim {
            size: -1
          }
        }
        shape {
          dim {
            size: -1
          }
        }
        shape {
          dim {
            size: -1
          }
        }
        shape {
          dim {
            size: 2
          }
        }
        shape {
          dim {
            size: 2
          }
        }
        shape {
          dim {
            size: 2
          }
        }
        shape {
          dim {
            size: 2
          }
        }
        shape {
          dim {
            size: 1
          }
          dim {
            size: 1
          }
        }
        shape {
          dim {
            size: 1
          }
        }
        shape {
          dim {
            size: 1
          }
        }
      }
    }
  }
  attr {
    key: "dense_shapes"
    value {
      list {
        shape {
          dim {
            size: 1
          }
        }
        shape {
        }
        shape {
        }
      }
    }
  }
  attr {
    key: "sparse_types"
    value {
      list {
        type: DT_FLOAT
        type: DT_FLOAT
        type: DT_FLOAT
        type: DT_FLOAT
      }
    }
  }
}
node {
  name: "batch_processing/ParseSingleExample/Squeeze_image/class/label"
  op: "Squeeze"
  input: "batch_processing/ParseSingleExample/ParseExample/ParseExample:12"
  attr {
    key: "T"
    value {
      type: DT_INT64
    }
  }
  attr {
    key: "_output_shapes"
    value {
      list {
        shape {
          dim {
            size: 1
          }
        }
      }
    }
  }
  attr {
    key: "squeeze_dims"
    value {
      list {
        i: 0
      }
    }
  }
}
node {
  name: "batch_processing/ParseSingleExample/Squeeze_image/class/text"
  op: "Squeeze"
  input: "batch_processing/ParseSingleExample/ParseExample/ParseExample:13"
  attr {
    key: "T"
    value {
      type: DT_STRING
    }
  }
  attr {
    key: "_output_shapes"
    value {
      list {
        shape {
        }
      }
    }
  }
  attr {
    key: "squeeze_dims"
    value {
      list {
        i: 0
      }
    }
  }
}
node {
  name: "batch_processing/ParseSingleExample/Squeeze_image/encoded"
  op: "Squeeze"
  input: "batch_processing/ParseSingleExample/ParseExample/ParseExample:14"
  attr {
    key: "T"
    value {
      type: DT_STRING
    }
  }
  attr {
    key: "_output_shapes"
    value {
      list {
        shape {
        }
      }
    }
  }
  attr {
    key: "squeeze_dims"
    value {
      list {
        i: 0
      }
    }
  }
}
node {
  name: "batch_processing/ParseSingleExample/Slice_Indices_image/object/bbox/xmax/begin"
  op: "Const"
  attr {
    key: "_output_shapes"
    value {
      list {
        shape {
          dim {
            size: 2
          }
        }
      }
    }
  }
  attr {
    key: "dtype"
    value {
      type: DT_INT32
    }
  }
  attr {
    key: "value"
    value {
      tensor {
        dtype: DT_INT32
        tensor_shape {
          dim {
            size: 2
          }
        }
        tensor_content: "\000\000\000\000\001\000\000\000"
      }
    }
  }
}
node {
  name: "batch_processing/ParseSingleExample/Slice_Indices_image/object/bbox/xmax/size"
  op: "Const"
  attr {
    key: "_output_shapes"
    value {
      list {
        shape {
          dim {
            size: 2
          }
        }
      }
    }
  }
  attr {
    key: "dtype"
    value {
      type: DT_INT32
    }
  }
  attr {
    key: "value"
    value {
      tensor {
        dtype: DT_INT32
        tensor_shape {
          dim {
            size: 2
          }
        }
        tensor_content: "\377\377\377\377\377\377\377\377"
      }
    }
  }
}
node {
  name: "batch_processing/ParseSingleExample/Slice_Indices_image/object/bbox/xmax"
  op: "Slice"
  input: "batch_processing/ParseSingleExample/ParseExample/ParseExample"
  input: "batch_processing/ParseSingleExample/Slice_Indices_image/object/bbox/xmax/begin"
  input: "batch_processing/ParseSingleExample/Slice_Indices_image/object/bbox/xmax/size"
  attr {
    key: "Index"
    value {
      type: DT_INT32
    }
  }
  attr {
    key: "T"
    value {
      type: DT_INT64
    }
  }
  attr {
    key: "_output_shapes"
    value {
      list {
        shape {
          dim {
            size: -1
          }
          dim {
            size: 1
          }
        }
      }
    }
  }
}
node {
  name: "batch_processing/ParseSingleExample/Squeeze_Shape_image/object/bbox/xmax/begin"
  op: "Const"
  attr {
    key: "_output_shapes"
    value {
      list {
        shape {
          dim {
            size: 1
          }
        }
      }
    }
  }
  attr {
    key: "dtype"
    value {
      type: DT_INT32
    }
  }
  attr {
    key: "value"
    value {
      tensor {
        dtype: DT_INT32
        tensor_shape {
          dim {
            size: 1
          }
        }
        int_val: 1
      }
    }
  }
}
node {
  name: "batch_processing/ParseSingleExample/Squeeze_Shape_image/object/bbox/xmax/size"
  op: "Const"
  attr {
    key: "_output_shapes"
    value {
      list {
        shape {
          dim {
            size: 1
          }
        }
      }
    }
  }
  attr {
    key: "dtype"
    value {
      type: DT_INT32
    }
  }
  attr {
    key: "value"
    value {
      tensor {
        dtype: DT_INT32
        tensor_shape {
          dim {
            size: 1
          }
        }
        int_val: -1
      }
    }
  }
}
node {
  name: "batch_processing/ParseSingleExample/Squeeze_Shape_image/object/bbox/xmax"
  op: "Slice"
  input: "batch_processing/ParseSingleExample/ParseExample/ParseExample:8"
  input: "batch_processing/ParseSingleExample/Squeeze_Shape_image/object/bbox/xmax/begin"
  input: "batch_processing/ParseSingleExample/Squeeze_Shape_image/object/bbox/xmax/size"
  attr {
    key: "Index"
    value {
      type: DT_INT32
    }
  }
  attr {
    key: "T"
    value {
      type: DT_INT64
    }
  }
  attr {
    key: "_output_shapes"
    value {
      list {
        shape {
          dim {
            size: 1
          }
        }
      }
    }
  }
}
node {
  name: "batch_processing/ParseSingleExample/Slice_Indices_image/object/bbox/xmin/begin"
  op: "Const"
  attr {
    key: "_output_shapes"
    value {
      list {
        shape {
          dim {
            size: 2
          }
        }
      }
    }
  }
  attr {
    key: "dtype"
    value {
      type: DT_INT32
    }
  }
  attr {
    key: "value"
    value {
      tensor {
        dtype: DT_INT32
        tensor_shape {
          dim {
            size: 2
          }
        }
        tensor_content: "\000\000\000\000\001\000\000\000"
      }
    }
  }
}
node {
  name: "batch_processing/ParseSingleExample/Slice_Indices_image/object/bbox/xmin/size"
  op: "Const"
  attr {
    key: "_output_shapes"
    value {
      list {
        shape {
          dim {
            size: 2
          }
        }
      }
    }
  }
  attr {
    key: "dtype"
    value {
      type: DT_INT32
    }
  }
  attr {
    key: "value"
    value {
      tensor {
        dtype: DT_INT32
        tensor_shape {
          dim {
            size: 2
          }
        }
        tensor_content: "\377\377\377\377\377\377\377\377"
      }
    }
  }
}
node {
  name: "batch_processing/ParseSingleExample/Slice_Indices_image/object/bbox/xmin"
  op: "Slice"
  input: "batch_processing/ParseSingleExample/ParseExample/ParseExample:1"
  input: "batch_processing/ParseSingleExample/Slice_Indices_image/object/bbox/xmin/begin"
  input: "batch_processing/ParseSingleExample/Slice_Indices_image/object/bbox/xmin/size"
  attr {
    key: "Index"
    value {
      type: DT_INT32
    }
  }
  attr {
    key: "T"
    value {
      type: DT_INT64
    }
  }
  attr {
    key: "_output_shapes"
    value {
      list {
        shape {
          dim {
            size: -1
          }
          dim {
            size: 1
          }
        }
      }
    }
  }
}
node {
  name: "batch_processing/ParseSingleExample/Squeeze_Shape_image/object/bbox/xmin/begin"
  op: "Const"
  attr {
    key: "_output_shapes"
    value {
      list {
        shape {
          dim {
            size: 1
          }
        }
      }
    }
  }
  attr {
    key: "dtype"
    value {
      type: DT_INT32
    }
  }
  attr {
    key: "value"
    value {
      tensor {
        dtype: DT_INT32
        tensor_shape {
          dim {
            size: 1
          }
        }
        int_val: 1
      }
    }
  }
}
node {
  name: "batch_processing/ParseSingleExample/Squeeze_Shape_image/object/bbox/xmin/size"
  op: "Const"
  attr {
    key: "_output_shapes"
    value {
      list {
        shape {
          dim {
            size: 1
          }
        }
      }
    }
  }
  attr {
    key: "dtype"
    value {
      type: DT_INT32
    }
  }
  attr {
    key: "value"
    value {
      tensor {
        dtype: DT_INT32
        tensor_shape {
          dim {
            size: 1
          }
        }
        int_val: -1
      }
    }
  }
}
node {
  name: "batch_processing/ParseSingleExample/Squeeze_Shape_image/object/bbox/xmin"
  op: "Slice"
  input: "batch_processing/ParseSingleExample/ParseExample/ParseExample:9"
  input: "batch_processing/ParseSingleExample/Squeeze_Shape_image/object/bbox/xmin/begin"
  input: "batch_processing/ParseSingleExample/Squeeze_Shape_image/object/bbox/xmin/size"
  attr {
    key: "Index"
    value {
      type: DT_INT32
    }
  }
  attr {
    key: "T"
    value {
      type: DT_INT64
    }
  }
  attr {
    key: "_output_shapes"
    value {
      list {
        shape {
          dim {
            size: 1
          }
        }
      }
    }
  }
}
node {
  name: "batch_processing/ParseSingleExample/Slice_Indices_image/object/bbox/ymax/begin"
  op: "Const"
  attr {
    key: "_output_shapes"
    value {
      list {
        shape {
          dim {
            size: 2
          }
        }
      }
    }
  }
  attr {
    key: "dtype"
    value {
      type: DT_INT32
    }
  }
  attr {
    key: "value"
    value {
      tensor {
        dtype: DT_INT32
        tensor_shape {
          dim {
            size: 2
          }
        }
        tensor_content: "\000\000\000\000\001\000\000\000"
      }
    }
  }
}
node {
  name: "batch_processing/ParseSingleExample/Slice_Indices_image/object/bbox/ymax/size"
  op: "Const"
  attr {
    key: "_output_shapes"
    value {
      list {
        shape {
          dim {
            size: 2
          }
        }
      }
    }
  }
  attr {
    key: "dtype"
    value {
      type: DT_INT32
    }
  }
  attr {
    key: "value"
    value {
      tensor {
        dtype: DT_INT32
        tensor_shape {
          dim {
            size: 2
          }
        }
        tensor_content: "\377\377\377\377\377\377\377\377"
      }
    }
  }
}
node {
  name: "batch_processing/ParseSingleExample/Slice_Indices_image/object/bbox/ymax"
  op: "Slice"
  input: "batch_processing/ParseSingleExample/ParseExample/ParseExample:2"
  input: "batch_processing/ParseSingleExample/Slice_Indices_image/object/bbox/ymax/begin"
  input: "batch_processing/ParseSingleExample/Slice_Indices_image/object/bbox/ymax/size"
  attr {
    key: "Index"
    value {
      type: DT_INT32
    }
  }
  attr {
    key: "T"
    value {
      type: DT_INT64
    }
  }
  attr {
    key: "_output_shapes"
    value {
      list {
        shape {
          dim {
            size: -1
          }
          dim {
            size: 1
          }
        }
      }
    }
  }
}
node {
  name: "batch_processing/ParseSingleExample/Squeeze_Shape_image/object/bbox/ymax/begin"
  op: "Const"
  attr {
    key: "_output_shapes"
    value {
      list {
        shape {
          dim {
            size: 1
          }
        }
      }
    }
  }
  attr {
    key: "dtype"
    value {
      type: DT_INT32
    }
  }
  attr {
    key: "value"
    value {
      tensor {
        dtype: DT_INT32
        tensor_shape {
          dim {
            size: 1
          }
        }
        int_val: 1
      }
    }
  }
}
node {
  name: "batch_processing/ParseSingleExample/Squeeze_Shape_image/object/bbox/ymax/size"
  op: "Const"
  attr {
    key: "_output_shapes"
    value {
      list {
        shape {
          dim {
            size: 1
          }
        }
      }
    }
  }
  attr {
    key: "dtype"
    value {
      type: DT_INT32
    }
  }
  attr {
    key: "value"
    value {
      tensor {
        dtype: DT_INT32
        tensor_shape {
          dim {
            size: 1
          }
        }
        int_val: -1
      }
    }
  }
}
node {
  name: "batch_processing/ParseSingleExample/Squeeze_Shape_image/object/bbox/ymax"
  op: "Slice"
  input: "batch_processing/ParseSingleExample/ParseExample/ParseExample:10"
  input: "batch_processing/ParseSingleExample/Squeeze_Shape_image/object/bbox/ymax/begin"
  input: "batch_processing/ParseSingleExample/Squeeze_Shape_image/object/bbox/ymax/size"
  attr {
    key: "Index"
    value {
      type: DT_INT32
    }
  }
  attr {
    key: "T"
    value {
      type: DT_INT64
    }
  }
  attr {
    key: "_output_shapes"
    value {
      list {
        shape {
          dim {
            size: 1
          }
        }
      }
    }
  }
}
node {
  name: "batch_processing/ParseSingleExample/Slice_Indices_image/object/bbox/ymin/begin"
  op: "Const"
  attr {
    key: "_output_shapes"
    value {
      list {
        shape {
          dim {
            size: 2
          }
        }
      }
    }
  }
  attr {
    key: "dtype"
    value {
      type: DT_INT32
    }
  }
  attr {
    key: "value"
    value {
      tensor {
        dtype: DT_INT32
        tensor_shape {
          dim {
            size: 2
          }
        }
        tensor_content: "\000\000\000\000\001\000\000\000"
      }
    }
  }
}
node {
  name: "batch_processing/ParseSingleExample/Slice_Indices_image/object/bbox/ymin/size"
  op: "Const"
  attr {
    key: "_output_shapes"
    value {
      list {
        shape {
          dim {
            size: 2
          }
        }
      }
    }
  }
  attr {
    key: "dtype"
    value {
      type: DT_INT32
    }
  }
  attr {
    key: "value"
    value {
      tensor {
        dtype: DT_INT32
        tensor_shape {
          dim {
            size: 2
          }
        }
        tensor_content: "\377\377\377\377\377\377\377\377"
      }
    }
  }
}
node {
  name: "batch_processing/ParseSingleExample/Slice_Indices_image/object/bbox/ymin"
  op: "Slice"
  input: "batch_processing/ParseSingleExample/ParseExample/ParseExample:3"
  input: "batch_processing/ParseSingleExample/Slice_Indices_image/object/bbox/ymin/begin"
  input: "batch_processing/ParseSingleExample/Slice_Indices_image/object/bbox/ymin/size"
  attr {
    key: "Index"
    value {
      type: DT_INT32
    }
  }
  attr {
    key: "T"
    value {
      type: DT_INT64
    }
  }
  attr {
    key: "_output_shapes"
    value {
      list {
        shape {
          dim {
            size: -1
          }
          dim {
            size: 1
          }
        }
      }
    }
  }
}
node {
  name: "batch_processing/ParseSingleExample/Squeeze_Shape_image/object/bbox/ymin/begin"
  op: "Const"
  attr {
    key: "_output_shapes"
    value {
      list {
        shape {
          dim {
            size: 1
          }
        }
      }
    }
  }
  attr {
    key: "dtype"
    value {
      type: DT_INT32
    }
  }
  attr {
    key: "value"
    value {
      tensor {
        dtype: DT_INT32
        tensor_shape {
          dim {
            size: 1
          }
        }
        int_val: 1
      }
    }
  }
}
node {
  name: "batch_processing/ParseSingleExample/Squeeze_Shape_image/object/bbox/ymin/size"
  op: "Const"
  attr {
    key: "_output_shapes"
    value {
      list {
        shape {
          dim {
            size: 1
          }
        }
      }
    }
  }
  attr {
    key: "dtype"
    value {
      type: DT_INT32
    }
  }
  attr {
    key: "value"
    value {
      tensor {
        dtype: DT_INT32
        tensor_shape {
          dim {
            size: 1
          }
        }
        int_val: -1
      }
    }
  }
}
node {
  name: "batch_processing/ParseSingleExample/Squeeze_Shape_image/object/bbox/ymin"
  op: "Slice"
  input: "batch_processing/ParseSingleExample/ParseExample/ParseExample:11"
  input: "batch_processing/ParseSingleExample/Squeeze_Shape_image/object/bbox/ymin/begin"
  input: "batch_processing/ParseSingleExample/Squeeze_Shape_image/object/bbox/ymin/size"
  attr {
    key: "Index"
    value {
      type: DT_INT32
    }
  }
  attr {
    key: "T"
    value {
      type: DT_INT64
    }
  }
  attr {
    key: "_output_shapes"
    value {
      list {
        shape {
          dim {
            size: 1
          }
        }
      }
    }
  }
}
node {
  name: "batch_processing/Cast"
  op: "Cast"
  input: "batch_processing/ParseSingleExample/Squeeze_image/class/label"
  attr {
    key: "DstT"
    value {
      type: DT_INT32
    }
  }
  attr {
    key: "SrcT"
    value {
      type: DT_INT64
    }
  }
  attr {
    key: "_output_shapes"
    value {
      list {
        shape {
          dim {
            size: 1
          }
        }
      }
    }
  }
}
node {
  name: "batch_processing/ExpandDims/dim"
  op: "Const"
  attr {
    key: "_output_shapes"
    value {
      list {
        shape {
        }
      }
    }
  }
  attr {
    key: "dtype"
    value {
      type: DT_INT32
    }
  }
  attr {
    key: "value"
    value {
      tensor {
        dtype: DT_INT32
        tensor_shape {
        }
        int_val: 0
      }
    }
  }
}
node {
  name: "batch_processing/ExpandDims"
  op: "ExpandDims"
  input: "batch_processing/ParseSingleExample/ParseExample/ParseExample:5"
  input: "batch_processing/ExpandDims/dim"
  attr {
    key: "T"
    value {
      type: DT_FLOAT
    }
  }
  attr {
    key: "_output_shapes"
    value {
      list {
        shape {
          dim {
            size: 1
          }
          dim {
            size: -1
          }
        }
      }
    }
  }
}
node {
  name: "batch_processing/ExpandDims_1/dim"
  op: "Const"
  attr {
    key: "_output_shapes"
    value {
      list {
        shape {
        }
      }
    }
  }
  attr {
    key: "dtype"
    value {
      type: DT_INT32
    }
  }
  attr {
    key: "value"
    value {
      tensor {
        dtype: DT_INT32
        tensor_shape {
        }
        int_val: 0
      }
    }
  }
}
node {
  name: "batch_processing/ExpandDims_1"
  op: "ExpandDims"
  input: "batch_processing/ParseSingleExample/ParseExample/ParseExample:7"
  input: "batch_processing/ExpandDims_1/dim"
  attr {
    key: "T"
    value {
      type: DT_FLOAT
    }
  }
  attr {
    key: "_output_shapes"
    value {
      list {
        shape {
          dim {
            size: 1
          }
          dim {
            size: -1
          }
        }
      }
    }
  }
}
node {
  name: "batch_processing/ExpandDims_2/dim"
  op: "Const"
  attr {
    key: "_output_shapes"
    value {
      list {
        shape {
        }
      }
    }
  }
  attr {
    key: "dtype"
    value {
      type: DT_INT32
    }
  }
  attr {
    key: "value"
    value {
      tensor {
        dtype: DT_INT32
        tensor_shape {
        }
        int_val: 0
      }
    }
  }
}
node {
  name: "batch_processing/ExpandDims_2"
  op: "ExpandDims"
  input: "batch_processing/ParseSingleExample/ParseExample/ParseExample:4"
  input: "batch_processing/ExpandDims_2/dim"
  attr {
    key: "T"
    value {
      type: DT_FLOAT
    }
  }
  attr {
    key: "_output_shapes"
    value {
      list {
        shape {
          dim {
            size: 1
          }
          dim {
            size: -1
          }
        }
      }
    }
  }
}
node {
  name: "batch_processing/ExpandDims_3/dim"
  op: "Const"
  attr {
    key: "_output_shapes"
    value {
      list {
        shape {
        }
      }
    }
  }
  attr {
    key: "dtype"
    value {
      type: DT_INT32
    }
  }
  attr {
    key: "value"
    value {
      tensor {
        dtype: DT_INT32
        tensor_shape {
        }
        int_val: 0
      }
    }
  }
}
node {
  name: "batch_processing/ExpandDims_3"
  op: "ExpandDims"
  input: "batch_processing/ParseSingleExample/ParseExample/ParseExample:6"
  input: "batch_processing/ExpandDims_3/dim"
  attr {
    key: "T"
    value {
      type: DT_FLOAT
    }
  }
  attr {
    key: "_output_shapes"
    value {
      list {
        shape {
          dim {
            size: 1
          }
          dim {
            size: -1
          }
        }
      }
    }
  }
}
node {
  name: "batch_processing/concat/concat_dim"
  op: "Const"
  attr {
    key: "_output_shapes"
    value {
      list {
        shape {
        }
      }
    }
  }
  attr {
    key: "dtype"
    value {
      type: DT_INT32
    }
  }
  attr {
    key: "value"
    value {
      tensor {
        dtype: DT_INT32
        tensor_shape {
        }
        int_val: 0
      }
    }
  }
}
node {
  name: "batch_processing/concat"
  op: "Concat"
  input: "batch_processing/concat/concat_dim"
  input: "batch_processing/ExpandDims_1"
  input: "batch_processing/ExpandDims"
  input: "batch_processing/ExpandDims_3"
  input: "batch_processing/ExpandDims_2"
  attr {
    key: "N"
    value {
      i: 4
    }
  }
  attr {
    key: "T"
    value {
      type: DT_FLOAT
    }
  }
  attr {
    key: "_output_shapes"
    value {
      list {
        shape {
          dim {
            size: 4
          }
          dim {
            size: -1
          }
        }
      }
    }
  }
}
node {
  name: "batch_processing/ExpandDims_4/dim"
  op: "Const"
  attr {
    key: "_output_shapes"
    value {
      list {
        shape {
        }
      }
    }
  }
  attr {
    key: "dtype"
    value {
      type: DT_INT32
    }
  }
  attr {
    key: "value"
    value {
      tensor {
        dtype: DT_INT32
        tensor_shape {
        }
        int_val: 0
      }
    }
  }
}
node {
  name: "batch_processing/ExpandDims_4"
  op: "ExpandDims"
  input: "batch_processing/concat"
  input: "batch_processing/ExpandDims_4/dim"
  attr {
    key: "T"
    value {
      type: DT_FLOAT
    }
  }
  attr {
    key: "_output_shapes"
    value {
      list {
        shape {
          dim {
            size: 1
          }
          dim {
            size: 4
          }
          dim {
            size: -1
          }
        }
      }
    }
  }
}
node {
  name: "batch_processing/transpose/perm"
  op: "Const"
  attr {
    key: "_output_shapes"
    value {
      list {
        shape {
          dim {
            size: 3
          }
        }
      }
    }
  }
  attr {
    key: "dtype"
    value {
      type: DT_INT32
    }
  }
  attr {
    key: "value"
    value {
      tensor {
        dtype: DT_INT32
        tensor_shape {
          dim {
            size: 3
          }
        }
        tensor_content: "\000\000\000\000\002\000\000\000\001\000\000\000"
      }
    }
  }
}
node {
  name: "batch_processing/transpose"
  op: "Transpose"
  input: "batch_processing/ExpandDims_4"
  input: "batch_processing/transpose/perm"
  attr {
    key: "T"
    value {
      type: DT_FLOAT
    }
  }
  attr {
    key: "_output_shapes"
    value {
      list {
        shape {
          dim {
            size: 1
          }
          dim {
            size: -1
          }
          dim {
            size: 4
          }
        }
      }
    }
  }
}
node {
  name: "batch_processing/decode_jpg/DecodeJpeg"
  op: "DecodeJpeg"
  input: "batch_processing/ParseSingleExample/Squeeze_image/encoded"
  attr {
    key: "_output_shapes"
    value {
      list {
        shape {
          dim {
            size: -1
          }
          dim {
            size: -1
          }
          dim {
            size: 3
          }
        }
      }
    }
  }
  attr {
    key: "acceptable_fraction"
    value {
      f: 1.0
    }
  }
  attr {
    key: "channels"
    value {
      i: 3
    }
  }
  attr {
    key: "fancy_upscaling"
    value {
      b: true
    }
  }
  attr {
    key: "ratio"
    value {
      i: 1
    }
  }
  attr {
    key: "try_recover_truncated"
    value {
      b: false
    }
  }
}
node {
  name: "batch_processing/decode_jpg/convert_image/Cast"
  op: "Cast"
  input: "batch_processing/decode_jpg/DecodeJpeg"
  attr {
    key: "DstT"
    value {
      type: DT_FLOAT
    }
  }
  attr {
    key: "SrcT"
    value {
      type: DT_UINT8
    }
  }
  attr {
    key: "_output_shapes"
    value {
      list {
        shape {
          dim {
            size: -1
          }
          dim {
            size: -1
          }
          dim {
            size: 3
          }
        }
      }
    }
  }
}
node {
  name: "batch_processing/decode_jpg/convert_image/y"
  op: "Const"
  attr {
    key: "_output_shapes"
    value {
      list {
        shape {
        }
      }
    }
  }
  attr {
    key: "dtype"
    value {
      type: DT_FLOAT
    }
  }
  attr {
    key: "value"
    value {
      tensor {
        dtype: DT_FLOAT
        tensor_shape {
        }
        float_val: 0.00392156885937
      }
    }
  }
}
node {
  name: "batch_processing/decode_jpg/convert_image"
  op: "Mul"
  input: "batch_processing/decode_jpg/convert_image/Cast"
  input: "batch_processing/decode_jpg/convert_image/y"
  attr {
    key: "T"
    value {
      type: DT_FLOAT
    }
  }
  attr {
    key: "_output_shapes"
    value {
      list {
        shape {
          dim {
            size: -1
          }
          dim {
            size: -1
          }
          dim {
            size: 3
          }
        }
      }
    }
  }
}
node {
  name: "batch_processing/eval_image/Shape"
  op: "Shape"
  input: "batch_processing/decode_jpg/convert_image"
  attr {
    key: "T"
    value {
      type: DT_FLOAT
    }
  }
  attr {
    key: "_output_shapes"
    value {
      list {
        shape {
          dim {
            size: 3
          }
        }
      }
    }
  }
}
node {
  name: "batch_processing/eval_image/assert_positive/Const"
  op: "Const"
  attr {
    key: "_output_shapes"
    value {
      list {
        shape {
        }
      }
    }
  }
  attr {
    key: "dtype"
    value {
      type: DT_INT32
    }
  }
  attr {
    key: "value"
    value {
      tensor {
        dtype: DT_INT32
        tensor_shape {
        }
        int_val: 0
      }
    }
  }
}
node {
  name: "batch_processing/eval_image/assert_positive/assert_less/Less"
  op: "Less"
  input: "batch_processing/eval_image/assert_positive/Const"
  input: "batch_processing/eval_image/Shape"
  attr {
    key: "T"
    value {
      type: DT_INT32
    }
  }
  attr {
    key: "_output_shapes"
    value {
      list {
        shape {
          dim {
            size: 3
          }
        }
      }
    }
  }
}
node {
  name: "batch_processing/eval_image/assert_positive/assert_less/Const"
  op: "Const"
  attr {
    key: "_output_shapes"
    value {
      list {
        shape {
          dim {
            size: 1
          }
        }
      }
    }
  }
  attr {
    key: "dtype"
    value {
      type: DT_INT32
    }
  }
  attr {
    key: "value"
    value {
      tensor {
        dtype: DT_INT32
        tensor_shape {
          dim {
            size: 1
          }
        }
        int_val: 0
      }
    }
  }
}
node {
  name: "batch_processing/eval_image/assert_positive/assert_less/All"
  op: "All"
  input: "batch_processing/eval_image/assert_positive/assert_less/Less"
  input: "batch_processing/eval_image/assert_positive/assert_less/Const"
  attr {
    key: "_output_shapes"
    value {
      list {
        shape {
        }
      }
    }
  }
  attr {
    key: "keep_dims"
    value {
      b: false
    }
  }
}
node {
  name: "batch_processing/eval_image/assert_positive/assert_less/Assert/data_0"
  op: "Const"
  attr {
    key: "_output_shapes"
    value {
      list {
        shape {
        }
      }
    }
  }
  attr {
    key: "dtype"
    value {
      type: DT_STRING
    }
  }
  attr {
    key: "value"
    value {
      tensor {
        dtype: DT_STRING
        tensor_shape {
        }
        string_val: "all dims of \'image.shape\' must be > 0."
      }
    }
  }
}
node {
  name: "batch_processing/eval_image/assert_positive/assert_less/Assert"
  op: "Assert"
  input: "batch_processing/eval_image/assert_positive/assert_less/All"
  input: "batch_processing/eval_image/assert_positive/assert_less/Assert/data_0"
  attr {
    key: "T"
    value {
      list {
        type: DT_STRING
      }
    }
  }
  attr {
    key: "summarize"
    value {
      i: 3
    }
  }
}
node {
  name: "batch_processing/eval_image/Shape_1"
  op: "Shape"
  input: "batch_processing/decode_jpg/convert_image"
  attr {
    key: "T"
    value {
      type: DT_FLOAT
    }
  }
  attr {
    key: "_output_shapes"
    value {
      list {
        shape {
          dim {
            size: 3
          }
        }
      }
    }
  }
}
node {
  name: "batch_processing/eval_image/strided_slice/pack"
  op: "Const"
  attr {
    key: "_output_shapes"
    value {
      list {
        shape {
          dim {
            size: 1
          }
        }
      }
    }
  }
  attr {
    key: "dtype"
    value {
      type: DT_INT32
    }
  }
  attr {
    key: "value"
    value {
      tensor {
        dtype: DT_INT32
        tensor_shape {
          dim {
            size: 1
          }
        }
        int_val: 0
      }
    }
  }
}
node {
  name: "batch_processing/eval_image/strided_slice/pack_1"
  op: "Const"
  attr {
    key: "_output_shapes"
    value {
      list {
        shape {
          dim {
            size: 1
          }
        }
      }
    }
  }
  attr {
    key: "dtype"
    value {
      type: DT_INT32
    }
  }
  attr {
    key: "value"
    value {
      tensor {
        dtype: DT_INT32
        tensor_shape {
          dim {
            size: 1
          }
        }
        int_val: 1
      }
    }
  }
}
node {
  name: "batch_processing/eval_image/strided_slice/pack_2"
  op: "Const"
  attr {
    key: "_output_shapes"
    value {
      list {
        shape {
          dim {
            size: 1
          }
        }
      }
    }
  }
  attr {
    key: "dtype"
    value {
      type: DT_INT32
    }
  }
  attr {
    key: "value"
    value {
      tensor {
        dtype: DT_INT32
        tensor_shape {
          dim {
            size: 1
          }
        }
        int_val: 1
      }
    }
  }
}
node {
  name: "batch_processing/eval_image/strided_slice"
  op: "StridedSlice"
  input: "batch_processing/eval_image/Shape_1"
  input: "batch_processing/eval_image/strided_slice/pack"
  input: "batch_processing/eval_image/strided_slice/pack_1"
  input: "batch_processing/eval_image/strided_slice/pack_2"
  attr {
    key: "Index"
    value {
      type: DT_INT32
    }
  }
  attr {
    key: "T"
    value {
      type: DT_INT32
    }
  }
  attr {
    key: "_output_shapes"
    value {
      list {
        shape {
        }
      }
    }
  }
  attr {
    key: "begin_mask"
    value {
      i: 0
    }
  }
  attr {
    key: "ellipsis_mask"
    value {
      i: 0
    }
  }
  attr {
    key: "end_mask"
    value {
      i: 0
    }
  }
  attr {
    key: "new_axis_mask"
    value {
      i: 0
    }
  }
  attr {
    key: "shrink_axis_mask"
    value {
      i: 1
    }
  }
}
node {
  name: "batch_processing/eval_image/Div/y"
  op: "Const"
  attr {
    key: "_output_shapes"
    value {
      list {
        shape {
        }
      }
    }
  }
  attr {
    key: "dtype"
    value {
      type: DT_INT32
    }
  }
  attr {
    key: "value"
    value {
      tensor {
        dtype: DT_INT32
        tensor_shape {
        }
        int_val: 16
      }
    }
  }
}
node {
  name: "batch_processing/eval_image/Div"
  op: "Div"
  input: "batch_processing/eval_image/strided_slice"
  input: "batch_processing/eval_image/Div/y"
  attr {
    key: "T"
    value {
      type: DT_INT32
    }
  }
  attr {
    key: "_output_shapes"
    value {
      list {
        shape {
        }
      }
    }
  }
}
node {
  name: "batch_processing/eval_image/strided_slice_1/pack"
  op: "Const"
  attr {
    key: "_output_shapes"
    value {
      list {
        shape {
          dim {
            size: 1
          }
        }
      }
    }
  }
  attr {
    key: "dtype"
    value {
      type: DT_INT32
    }
  }
  attr {
    key: "value"
    value {
      tensor {
        dtype: DT_INT32
        tensor_shape {
          dim {
            size: 1
          }
        }
        int_val: 1
      }
    }
  }
}
node {
  name: "batch_processing/eval_image/strided_slice_1/pack_1"
  op: "Const"
  attr {
    key: "_output_shapes"
    value {
      list {
        shape {
          dim {
            size: 1
          }
        }
      }
    }
  }
  attr {
    key: "dtype"
    value {
      type: DT_INT32
    }
  }
  attr {
    key: "value"
    value {
      tensor {
        dtype: DT_INT32
        tensor_shape {
          dim {
            size: 1
          }
        }
        int_val: 2
      }
    }
  }
}
node {
  name: "batch_processing/eval_image/strided_slice_1/pack_2"
  op: "Const"
  attr {
    key: "_output_shapes"
    value {
      list {
        shape {
          dim {
            size: 1
          }
        }
      }
    }
  }
  attr {
    key: "dtype"
    value {
      type: DT_INT32
    }
  }
  attr {
    key: "value"
    value {
      tensor {
        dtype: DT_INT32
        tensor_shape {
          dim {
            size: 1
          }
        }
        int_val: 1
      }
    }
  }
}
node {
  name: "batch_processing/eval_image/strided_slice_1"
  op: "StridedSlice"
  input: "batch_processing/eval_image/Shape_1"
  input: "batch_processing/eval_image/strided_slice_1/pack"
  input: "batch_processing/eval_image/strided_slice_1/pack_1"
  input: "batch_processing/eval_image/strided_slice_1/pack_2"
  attr {
    key: "Index"
    value {
      type: DT_INT32
    }
  }
  attr {
    key: "T"
    value {
      type: DT_INT32
    }
  }
  attr {
    key: "_output_shapes"
    value {
      list {
        shape {
        }
      }
    }
  }
  attr {
    key: "begin_mask"
    value {
      i: 0
    }
  }
  attr {
    key: "ellipsis_mask"
    value {
      i: 0
    }
  }
  attr {
    key: "end_mask"
    value {
      i: 0
    }
  }
  attr {
    key: "new_axis_mask"
    value {
      i: 0
    }
  }
  attr {
    key: "shrink_axis_mask"
    value {
      i: 1
    }
  }
}
node {
  name: "batch_processing/eval_image/Div_1/y"
  op: "Const"
  attr {
    key: "_output_shapes"
    value {
      list {
        shape {
        }
      }
    }
  }
  attr {
    key: "dtype"
    value {
      type: DT_INT32
    }
  }
  attr {
    key: "value"
    value {
      tensor {
        dtype: DT_INT32
        tensor_shape {
        }
        int_val: 16
      }
    }
  }
}
node {
  name: "batch_processing/eval_image/Div_1"
  op: "Div"
  input: "batch_processing/eval_image/strided_slice_1"
  input: "batch_processing/eval_image/Div_1/y"
  attr {
    key: "T"
    value {
      type: DT_INT32
    }
  }
  attr {
    key: "_output_shapes"
    value {
      list {
        shape {
        }
      }
    }
  }
}
node {
  name: "batch_processing/eval_image/strided_slice_2/pack"
  op: "Const"
  attr {
    key: "_output_shapes"
    value {
      list {
        shape {
          dim {
            size: 1
          }
        }
      }
    }
  }
  attr {
    key: "dtype"
    value {
      type: DT_INT32
    }
  }
  attr {
    key: "value"
    value {
      tensor {
        dtype: DT_INT32
        tensor_shape {
          dim {
            size: 1
          }
        }
        int_val: 0
      }
    }
  }
}
node {
  name: "batch_processing/eval_image/strided_slice_2/pack_1"
  op: "Const"
  attr {
    key: "_output_shapes"
    value {
      list {
        shape {
          dim {
            size: 1
          }
        }
      }
    }
  }
  attr {
    key: "dtype"
    value {
      type: DT_INT32
    }
  }
  attr {
    key: "value"
    value {
      tensor {
        dtype: DT_INT32
        tensor_shape {
          dim {
            size: 1
          }
        }
        int_val: 1
      }
    }
  }
}
node {
  name: "batch_processing/eval_image/strided_slice_2/pack_2"
  op: "Const"
  attr {
    key: "_output_shapes"
    value {
      list {
        shape {
          dim {
            size: 1
          }
        }
      }
    }
  }
  attr {
    key: "dtype"
    value {
      type: DT_INT32
    }
  }
  attr {
    key: "value"
    value {
      tensor {
        dtype: DT_INT32
        tensor_shape {
          dim {
            size: 1
          }
        }
        int_val: 1
      }
    }
  }
}
node {
  name: "batch_processing/eval_image/strided_slice_2"
  op: "StridedSlice"
  input: "batch_processing/eval_image/Shape_1"
  input: "batch_processing/eval_image/strided_slice_2/pack"
  input: "batch_processing/eval_image/strided_slice_2/pack_1"
  input: "batch_processing/eval_image/strided_slice_2/pack_2"
  attr {
    key: "Index"
    value {
      type: DT_INT32
    }
  }
  attr {
    key: "T"
    value {
      type: DT_INT32
    }
  }
  attr {
    key: "_output_shapes"
    value {
      list {
        shape {
        }
      }
    }
  }
  attr {
    key: "begin_mask"
    value {
      i: 0
    }
  }
  attr {
    key: "ellipsis_mask"
    value {
      i: 0
    }
  }
  attr {
    key: "end_mask"
    value {
      i: 0
    }
  }
  attr {
    key: "new_axis_mask"
    value {
      i: 0
    }
  }
  attr {
    key: "shrink_axis_mask"
    value {
      i: 1
    }
  }
}
node {
  name: "batch_processing/eval_image/mul/y"
  op: "Const"
  attr {
    key: "_output_shapes"
    value {
      list {
        shape {
        }
      }
    }
  }
  attr {
    key: "dtype"
    value {
      type: DT_INT32
    }
  }
  attr {
    key: "value"
    value {
      tensor {
        dtype: DT_INT32
        tensor_shape {
        }
        int_val: 2
      }
    }
  }
}
node {
  name: "batch_processing/eval_image/mul"
  op: "Mul"
  input: "batch_processing/eval_image/Div"
  input: "batch_processing/eval_image/mul/y"
  attr {
    key: "T"
    value {
      type: DT_INT32
    }
  }
  attr {
    key: "_output_shapes"
    value {
      list {
        shape {
        }
      }
    }
  }
}
node {
  name: "batch_processing/eval_image/sub"
  op: "Sub"
  input: "batch_processing/eval_image/strided_slice_2"
  input: "batch_processing/eval_image/mul"
  attr {
    key: "T"
    value {
      type: DT_INT32
    }
  }
  attr {
    key: "_output_shapes"
    value {
      list {
        shape {
        }
      }
    }
  }
}
node {
  name: "batch_processing/eval_image/strided_slice_3/pack"
  op: "Const"
  attr {
    key: "_output_shapes"
    value {
      list {
        shape {
          dim {
            size: 1
          }
        }
      }
    }
  }
  attr {
    key: "dtype"
    value {
      type: DT_INT32
    }
  }
  attr {
    key: "value"
    value {
      tensor {
        dtype: DT_INT32
        tensor_shape {
          dim {
            size: 1
          }
        }
        int_val: 1
      }
    }
  }
}
node {
  name: "batch_processing/eval_image/strided_slice_3/pack_1"
  op: "Const"
  attr {
    key: "_output_shapes"
    value {
      list {
        shape {
          dim {
            size: 1
          }
        }
      }
    }
  }
  attr {
    key: "dtype"
    value {
      type: DT_INT32
    }
  }
  attr {
    key: "value"
    value {
      tensor {
        dtype: DT_INT32
        tensor_shape {
          dim {
            size: 1
          }
        }
        int_val: 2
      }
    }
  }
}
node {
  name: "batch_processing/eval_image/strided_slice_3/pack_2"
  op: "Const"
  attr {
    key: "_output_shapes"
    value {
      list {
        shape {
          dim {
            size: 1
          }
        }
      }
    }
  }
  attr {
    key: "dtype"
    value {
      type: DT_INT32
    }
  }
  attr {
    key: "value"
    value {
      tensor {
        dtype: DT_INT32
        tensor_shape {
          dim {
            size: 1
          }
        }
        int_val: 1
      }
    }
  }
}
node {
  name: "batch_processing/eval_image/strided_slice_3"
  op: "StridedSlice"
  input: "batch_processing/eval_image/Shape_1"
  input: "batch_processing/eval_image/strided_slice_3/pack"
  input: "batch_processing/eval_image/strided_slice_3/pack_1"
  input: "batch_processing/eval_image/strided_slice_3/pack_2"
  attr {
    key: "Index"
    value {
      type: DT_INT32
    }
  }
  attr {
    key: "T"
    value {
      type: DT_INT32
    }
  }
  attr {
    key: "_output_shapes"
    value {
      list {
        shape {
        }
      }
    }
  }
  attr {
    key: "begin_mask"
    value {
      i: 0
    }
  }
  attr {
    key: "ellipsis_mask"
    value {
      i: 0
    }
  }
  attr {
    key: "end_mask"
    value {
      i: 0
    }
  }
  attr {
    key: "new_axis_mask"
    value {
      i: 0
    }
  }
  attr {
    key: "shrink_axis_mask"
    value {
      i: 1
    }
  }
}
node {
  name: "batch_processing/eval_image/mul_1/y"
  op: "Const"
  attr {
    key: "_output_shapes"
    value {
      list {
        shape {
        }
      }
    }
  }
  attr {
    key: "dtype"
    value {
      type: DT_INT32
    }
  }
  attr {
    key: "value"
    value {
      tensor {
        dtype: DT_INT32
        tensor_shape {
        }
        int_val: 2
      }
    }
  }
}
node {
  name: "batch_processing/eval_image/mul_1"
  op: "Mul"
  input: "batch_processing/eval_image/Div_1"
  input: "batch_processing/eval_image/mul_1/y"
  attr {
    key: "T"
    value {
      type: DT_INT32
    }
  }
  attr {
    key: "_output_shapes"
    value {
      list {
        shape {
        }
      }
    }
  }
}
node {
  name: "batch_processing/eval_image/sub_1"
  op: "Sub"
  input: "batch_processing/eval_image/strided_slice_3"
  input: "batch_processing/eval_image/mul_1"
  attr {
    key: "T"
    value {
      type: DT_INT32
    }
  }
  attr {
    key: "_output_shapes"
    value {
      list {
        shape {
        }
      }
    }
  }
}
node {
  name: "batch_processing/eval_image/pack/2"
  op: "Const"
  attr {
    key: "_output_shapes"
    value {
      list {
        shape {
        }
      }
    }
  }
  attr {
    key: "dtype"
    value {
      type: DT_INT32
    }
  }
  attr {
    key: "value"
    value {
      tensor {
        dtype: DT_INT32
        tensor_shape {
        }
        int_val: 0
      }
    }
  }
}
node {
  name: "batch_processing/eval_image/pack"
  op: "Pack"
  input: "batch_processing/eval_image/Div"
  input: "batch_processing/eval_image/Div_1"
  input: "batch_processing/eval_image/pack/2"
  attr {
    key: "N"
    value {
      i: 3
    }
  }
  attr {
    key: "T"
    value {
      type: DT_INT32
    }
  }
  attr {
    key: "_output_shapes"
    value {
      list {
        shape {
          dim {
            size: 3
          }
        }
      }
    }
  }
  attr {
    key: "axis"
    value {
      i: 0
    }
  }
}
node {
  name: "batch_processing/eval_image/pack_1/2"
  op: "Const"
  attr {
    key: "_output_shapes"
    value {
      list {
        shape {
        }
      }
    }
  }
  attr {
    key: "dtype"
    value {
      type: DT_INT32
    }
  }
  attr {
    key: "value"
    value {
      tensor {
        dtype: DT_INT32
        tensor_shape {
        }
        int_val: -1
      }
    }
  }
}
node {
  name: "batch_processing/eval_image/pack_1"
  op: "Pack"
  input: "batch_processing/eval_image/sub"
  input: "batch_processing/eval_image/sub_1"
  input: "batch_processing/eval_image/pack_1/2"
  attr {
    key: "N"
    value {
      i: 3
    }
  }
  attr {
    key: "T"
    value {
      type: DT_INT32
    }
  }
  attr {
    key: "_output_shapes"
    value {
      list {
        shape {
          dim {
            size: 3
          }
        }
      }
    }
  }
  attr {
    key: "axis"
    value {
      i: 0
    }
  }
}
node {
  name: "batch_processing/eval_image/Slice"
  op: "Slice"
  input: "batch_processing/decode_jpg/convert_image"
  input: "batch_processing/eval_image/pack"
  input: "batch_processing/eval_image/pack_1"
  attr {
    key: "Index"
    value {
      type: DT_INT32
    }
  }
  attr {
    key: "T"
    value {
      type: DT_FLOAT
    }
  }
  attr {
    key: "_output_shapes"
    value {
      list {
        shape {
          dim {
            size: -1
          }
          dim {
            size: -1
          }
          dim {
            size: 3
          }
        }
      }
    }
  }
}
node {
  name: "batch_processing/eval_image/ExpandDims/dim"
  op: "Const"
  attr {
    key: "_output_shapes"
    value {
      list {
        shape {
        }
      }
    }
  }
  attr {
    key: "dtype"
    value {
      type: DT_INT32
    }
  }
  attr {
    key: "value"
    value {
      tensor {
        dtype: DT_INT32
        tensor_shape {
        }
        int_val: 0
      }
    }
  }
}
node {
  name: "batch_processing/eval_image/ExpandDims"
  op: "ExpandDims"
  input: "batch_processing/eval_image/Slice"
  input: "batch_processing/eval_image/ExpandDims/dim"
  attr {
    key: "T"
    value {
      type: DT_FLOAT
    }
  }
  attr {
    key: "_output_shapes"
    value {
      list {
        shape {
          dim {
            size: 1
          }
          dim {
            size: -1
          }
          dim {
            size: -1
          }
          dim {
            size: 3
          }
        }
      }
    }
  }
}
node {
  name: "batch_processing/eval_image/ResizeBilinear/size"
  op: "Const"
  attr {
    key: "_output_shapes"
    value {
      list {
        shape {
          dim {
            size: 2
          }
        }
      }
    }
  }
  attr {
    key: "dtype"
    value {
      type: DT_INT32
    }
  }
  attr {
    key: "value"
    value {
      tensor {
        dtype: DT_INT32
        tensor_shape {
          dim {
            size: 2
          }
        }
        tensor_content: "+\001\000\000+\001\000\000"
      }
    }
  }
}
node {
  name: "batch_processing/eval_image/ResizeBilinear"
  op: "ResizeBilinear"
  input: "batch_processing/eval_image/ExpandDims"
  input: "batch_processing/eval_image/ResizeBilinear/size"
  attr {
    key: "T"
    value {
      type: DT_FLOAT
    }
  }
  attr {
    key: "_output_shapes"
    value {
      list {
        shape {
          dim {
            size: 1
          }
          dim {
            size: 299
          }
          dim {
            size: 299
          }
          dim {
            size: 3
          }
        }
      }
    }
  }
  attr {
    key: "align_corners"
    value {
      b: false
    }
  }
}
node {
  name: "batch_processing/eval_image/Squeeze"
  op: "Squeeze"
  input: "batch_processing/eval_image/ResizeBilinear"
  attr {
    key: "T"
    value {
      type: DT_FLOAT
    }
  }
  attr {
    key: "_output_shapes"
    value {
      list {
        shape {
          dim {
            size: 299
          }
          dim {
            size: 299
          }
          dim {
            size: 3
          }
        }
      }
    }
  }
  attr {
    key: "squeeze_dims"
    value {
      list {
        i: 0
      }
    }
  }
}
node {
  name: "batch_processing/Sub/y"
  op: "Const"
  attr {
    key: "_output_shapes"
    value {
      list {
        shape {
        }
      }
    }
  }
  attr {
    key: "dtype"
    value {
      type: DT_FLOAT
    }
  }
  attr {
    key: "value"
    value {
      tensor {
        dtype: DT_FLOAT
        tensor_shape {
        }
        float_val: 0.5
      }
    }
  }
}
node {
  name: "batch_processing/Sub"
  op: "Sub"
  input: "batch_processing/eval_image/Squeeze"
  input: "batch_processing/Sub/y"
  attr {
    key: "T"
    value {
      type: DT_FLOAT
    }
  }
  attr {
    key: "_output_shapes"
    value {
      list {
        shape {
          dim {
            size: 299
          }
          dim {
            size: 299
          }
          dim {
            size: 3
          }
        }
      }
    }
  }
}
node {
  name: "batch_processing/Mul/y"
  op: "Const"
  attr {
    key: "_output_shapes"
    value {
      list {
        shape {
        }
      }
    }
  }
  attr {
    key: "dtype"
    value {
      type: DT_FLOAT
    }
  }
  attr {
    key: "value"
    value {
      tensor {
        dtype: DT_FLOAT
        tensor_shape {
        }
        float_val: 2.0
      }
    }
  }
}
node {
  name: "batch_processing/Mul"
  op: "Mul"
  input: "batch_processing/Sub"
  input: "batch_processing/Mul/y"
  attr {
    key: "T"
    value {
      type: DT_FLOAT
    }
  }
  attr {
    key: "_output_shapes"
    value {
      list {
        shape {
          dim {
            size: 299
          }
          dim {
            size: 299
          }
          dim {
            size: 3
          }
        }
      }
    }
  }
}
node {
  name: "batch_processing/ParseSingleExample_1/ExpandDims/dim"
  op: "Const"
  attr {
    key: "_output_shapes"
    value {
      list {
        shape {
        }
      }
    }
  }
  attr {
    key: "dtype"
    value {
      type: DT_INT32
    }
  }
  attr {
    key: "value"
    value {
      tensor {
        dtype: DT_INT32
        tensor_shape {
        }
        int_val: 0
      }
    }
  }
}
node {
  name: "batch_processing/ParseSingleExample_1/ExpandDims"
  op: "ExpandDims"
  input: "batch_processing/ReaderRead:1"
  input: "batch_processing/ParseSingleExample_1/ExpandDims/dim"
  attr {
    key: "T"
    value {
      type: DT_STRING
    }
  }
  attr {
    key: "_output_shapes"
    value {
      list {
        shape {
          dim {
            size: 1
          }
        }
      }
    }
  }
}
node {
  name: "batch_processing/ParseSingleExample_1/ParseExample/key_image/class/label"
  op: "Const"
  attr {
    key: "_output_shapes"
    value {
      list {
        shape {
        }
      }
    }
  }
  attr {
    key: "dtype"
    value {
      type: DT_INT64
    }
  }
  attr {
    key: "value"
    value {
      tensor {
        dtype: DT_INT64
        tensor_shape {
        }
        int64_val: -1
      }
    }
  }
}
node {
  name: "batch_processing/ParseSingleExample_1/ParseExample/Reshape/shape"
  op: "Const"
  attr {
    key: "_output_shapes"
    value {
      list {
        shape {
          dim {
            size: 1
          }
        }
      }
    }
  }
  attr {
    key: "dtype"
    value {
      type: DT_INT32
    }
  }
  attr {
    key: "value"
    value {
      tensor {
        dtype: DT_INT32
        tensor_shape {
          dim {
            size: 1
          }
        }
        int_val: 1
      }
    }
  }
}
node {
  name: "batch_processing/ParseSingleExample_1/ParseExample/Reshape"
  op: "Reshape"
  input: "batch_processing/ParseSingleExample_1/ParseExample/key_image/class/label"
  input: "batch_processing/ParseSingleExample_1/ParseExample/Reshape/shape"
  attr {
    key: "T"
    value {
      type: DT_INT64
    }
  }
  attr {
    key: "_output_shapes"
    value {
      list {
        shape {
          dim {
            size: 1
          }
        }
      }
    }
  }
}
node {
  name: "batch_processing/ParseSingleExample_1/ParseExample/key_image/class/text"
  op: "Const"
  attr {
    key: "_output_shapes"
    value {
      list {
        shape {
        }
      }
    }
  }
  attr {
    key: "dtype"
    value {
      type: DT_STRING
    }
  }
  attr {
    key: "value"
    value {
      tensor {
        dtype: DT_STRING
        tensor_shape {
        }
        string_val: ""
      }
    }
  }
}
node {
  name: "batch_processing/ParseSingleExample_1/ParseExample/Reshape_1/shape"
  op: "Const"
  attr {
    key: "_output_shapes"
    value {
      list {
        shape {
          dim {
          }
        }
      }
    }
  }
  attr {
    key: "dtype"
    value {
      type: DT_INT32
    }
  }
  attr {
    key: "value"
    value {
      tensor {
        dtype: DT_INT32
        tensor_shape {
          dim {
          }
        }
      }
    }
  }
}
node {
  name: "batch_processing/ParseSingleExample_1/ParseExample/Reshape_1"
  op: "Reshape"
  input: "batch_processing/ParseSingleExample_1/ParseExample/key_image/class/text"
  input: "batch_processing/ParseSingleExample_1/ParseExample/Reshape_1/shape"
  attr {
    key: "T"
    value {
      type: DT_STRING
    }
  }
  attr {
    key: "_output_shapes"
    value {
      list {
        shape {
        }
      }
    }
  }
}
node {
  name: "batch_processing/ParseSingleExample_1/ParseExample/key_image/encoded"
  op: "Const"
  attr {
    key: "_output_shapes"
    value {
      list {
        shape {
        }
      }
    }
  }
  attr {
    key: "dtype"
    value {
      type: DT_STRING
    }
  }
  attr {
    key: "value"
    value {
      tensor {
        dtype: DT_STRING
        tensor_shape {
        }
        string_val: ""
      }
    }
  }
}
node {
  name: "batch_processing/ParseSingleExample_1/ParseExample/Reshape_2/shape"
  op: "Const"
  attr {
    key: "_output_shapes"
    value {
      list {
        shape {
          dim {
          }
        }
      }
    }
  }
  attr {
    key: "dtype"
    value {
      type: DT_INT32
    }
  }
  attr {
    key: "value"
    value {
      tensor {
        dtype: DT_INT32
        tensor_shape {
          dim {
          }
        }
      }
    }
  }
}
node {
  name: "batch_processing/ParseSingleExample_1/ParseExample/Reshape_2"
  op: "Reshape"
  input: "batch_processing/ParseSingleExample_1/ParseExample/key_image/encoded"
  input: "batch_processing/ParseSingleExample_1/ParseExample/Reshape_2/shape"
  attr {
    key: "T"
    value {
      type: DT_STRING
    }
  }
  attr {
    key: "_output_shapes"
    value {
      list {
        shape {
        }
      }
    }
  }
}
node {
  name: "batch_processing/ParseSingleExample_1/ParseExample/ParseExample/names"
  op: "Const"
  attr {
    key: "_output_shapes"
    value {
      list {
        shape {
          dim {
          }
        }
      }
    }
  }
  attr {
    key: "dtype"
    value {
      type: DT_STRING
    }
  }
  attr {
    key: "value"
    value {
      tensor {
        dtype: DT_STRING
        tensor_shape {
          dim {
          }
        }
      }
    }
  }
}
node {
  name: "batch_processing/ParseSingleExample_1/ParseExample/ParseExample/sparse_keys_0"
  op: "Const"
  attr {
    key: "_output_shapes"
    value {
      list {
        shape {
        }
      }
    }
  }
  attr {
    key: "dtype"
    value {
      type: DT_STRING
    }
  }
  attr {
    key: "value"
    value {
      tensor {
        dtype: DT_STRING
        tensor_shape {
        }
        string_val: "image/object/bbox/xmax"
      }
    }
  }
}
node {
  name: "batch_processing/ParseSingleExample_1/ParseExample/ParseExample/sparse_keys_1"
  op: "Const"
  attr {
    key: "_output_shapes"
    value {
      list {
        shape {
        }
      }
    }
  }
  attr {
    key: "dtype"
    value {
      type: DT_STRING
    }
  }
  attr {
    key: "value"
    value {
      tensor {
        dtype: DT_STRING
        tensor_shape {
        }
        string_val: "image/object/bbox/xmin"
      }
    }
  }
}
node {
  name: "batch_processing/ParseSingleExample_1/ParseExample/ParseExample/sparse_keys_2"
  op: "Const"
  attr {
    key: "_output_shapes"
    value {
      list {
        shape {
        }
      }
    }
  }
  attr {
    key: "dtype"
    value {
      type: DT_STRING
    }
  }
  attr {
    key: "value"
    value {
      tensor {
        dtype: DT_STRING
        tensor_shape {
        }
        string_val: "image/object/bbox/ymax"
      }
    }
  }
}
node {
  name: "batch_processing/ParseSingleExample_1/ParseExample/ParseExample/sparse_keys_3"
  op: "Const"
  attr {
    key: "_output_shapes"
    value {
      list {
        shape {
        }
      }
    }
  }
  attr {
    key: "dtype"
    value {
      type: DT_STRING
    }
  }
  attr {
    key: "value"
    value {
      tensor {
        dtype: DT_STRING
        tensor_shape {
        }
        string_val: "image/object/bbox/ymin"
      }
    }
  }
}
node {
  name: "batch_processing/ParseSingleExample_1/ParseExample/ParseExample/dense_keys_0"
  op: "Const"
  attr {
    key: "_output_shapes"
    value {
      list {
        shape {
        }
      }
    }
  }
  attr {
    key: "dtype"
    value {
      type: DT_STRING
    }
  }
  attr {
    key: "value"
    value {
      tensor {
        dtype: DT_STRING
        tensor_shape {
        }
        string_val: "image/class/label"
      }
    }
  }
}
node {
  name: "batch_processing/ParseSingleExample_1/ParseExample/ParseExample/dense_keys_1"
  op: "Const"
  attr {
    key: "_output_shapes"
    value {
      list {
        shape {
        }
      }
    }
  }
  attr {
    key: "dtype"
    value {
      type: DT_STRING
    }
  }
  attr {
    key: "value"
    value {
      tensor {
        dtype: DT_STRING
        tensor_shape {
        }
        string_val: "image/class/text"
      }
    }
  }
}
node {
  name: "batch_processing/ParseSingleExample_1/ParseExample/ParseExample/dense_keys_2"
  op: "Const"
  attr {
    key: "_output_shapes"
    value {
      list {
        shape {
        }
      }
    }
  }
  attr {
    key: "dtype"
    value {
      type: DT_STRING
    }
  }
  attr {
    key: "value"
    value {
      tensor {
        dtype: DT_STRING
        tensor_shape {
        }
        string_val: "image/encoded"
      }
    }
  }
}
node {
  name: "batch_processing/ParseSingleExample_1/ParseExample/ParseExample"
  op: "ParseExample"
  input: "batch_processing/ParseSingleExample_1/ExpandDims"
  input: "batch_processing/ParseSingleExample_1/ParseExample/ParseExample/names"
  input: "batch_processing/ParseSingleExample_1/ParseExample/ParseExample/sparse_keys_0"
  input: "batch_processing/ParseSingleExample_1/ParseExample/ParseExample/sparse_keys_1"
  input: "batch_processing/ParseSingleExample_1/ParseExample/ParseExample/sparse_keys_2"
  input: "batch_processing/ParseSingleExample_1/ParseExample/ParseExample/sparse_keys_3"
  input: "batch_processing/ParseSingleExample_1/ParseExample/ParseExample/dense_keys_0"
  input: "batch_processing/ParseSingleExample_1/ParseExample/ParseExample/dense_keys_1"
  input: "batch_processing/ParseSingleExample_1/ParseExample/ParseExample/dense_keys_2"
  input: "batch_processing/ParseSingleExample_1/ParseExample/Reshape"
  input: "batch_processing/ParseSingleExample_1/ParseExample/Reshape_1"
  input: "batch_processing/ParseSingleExample_1/ParseExample/Reshape_2"
  attr {
    key: "Ndense"
    value {
      i: 3
    }
  }
  attr {
    key: "Nsparse"
    value {
      i: 4
    }
  }
  attr {
    key: "Tdense"
    value {
      list {
        type: DT_INT64
        type: DT_STRING
        type: DT_STRING
      }
    }
  }
  attr {
    key: "_output_shapes"
    value {
      list {
        shape {
          dim {
            size: -1
          }
          dim {
            size: 2
          }
        }
        shape {
          dim {
            size: -1
          }
          dim {
            size: 2
          }
        }
        shape {
          dim {
            size: -1
          }
          dim {
            size: 2
          }
        }
        shape {
          dim {
            size: -1
          }
          dim {
            size: 2
          }
        }
        shape {
          dim {
            size: -1
          }
        }
        shape {
          dim {
            size: -1
          }
        }
        shape {
          dim {
            size: -1
          }
        }
        shape {
          dim {
            size: -1
          }
        }
        shape {
          dim {
            size: 2
          }
        }
        shape {
          dim {
            size: 2
          }
        }
        shape {
          dim {
            size: 2
          }
        }
        shape {
          dim {
            size: 2
          }
        }
        shape {
          dim {
            size: 1
          }
          dim {
            size: 1
          }
        }
        shape {
          dim {
            size: 1
          }
        }
        shape {
          dim {
            size: 1
          }
        }
      }
    }
  }
  attr {
    key: "dense_shapes"
    value {
      list {
        shape {
          dim {
            size: 1
          }
        }
        shape {
        }
        shape {
        }
      }
    }
  }
  attr {
    key: "sparse_types"
    value {
      list {
        type: DT_FLOAT
        type: DT_FLOAT
        type: DT_FLOAT
        type: DT_FLOAT
      }
    }
  }
}
node {
  name: "batch_processing/ParseSingleExample_1/Squeeze_image/class/label"
  op: "Squeeze"
  input: "batch_processing/ParseSingleExample_1/ParseExample/ParseExample:12"
  attr {
    key: "T"
    value {
      type: DT_INT64
    }
  }
  attr {
    key: "_output_shapes"
    value {
      list {
        shape {
          dim {
            size: 1
          }
        }
      }
    }
  }
  attr {
    key: "squeeze_dims"
    value {
      list {
        i: 0
      }
    }
  }
}
node {
  name: "batch_processing/ParseSingleExample_1/Squeeze_image/class/text"
  op: "Squeeze"
  input: "batch_processing/ParseSingleExample_1/ParseExample/ParseExample:13"
  attr {
    key: "T"
    value {
      type: DT_STRING
    }
  }
  attr {
    key: "_output_shapes"
    value {
      list {
        shape {
        }
      }
    }
  }
  attr {
    key: "squeeze_dims"
    value {
      list {
        i: 0
      }
    }
  }
}
node {
  name: "batch_processing/ParseSingleExample_1/Squeeze_image/encoded"
  op: "Squeeze"
  input: "batch_processing/ParseSingleExample_1/ParseExample/ParseExample:14"
  attr {
    key: "T"
    value {
      type: DT_STRING
    }
  }
  attr {
    key: "_output_shapes"
    value {
      list {
        shape {
        }
      }
    }
  }
  attr {
    key: "squeeze_dims"
    value {
      list {
        i: 0
      }
    }
  }
}
node {
  name: "batch_processing/ParseSingleExample_1/Slice_Indices_image/object/bbox/xmax/begin"
  op: "Const"
  attr {
    key: "_output_shapes"
    value {
      list {
        shape {
          dim {
            size: 2
          }
        }
      }
    }
  }
  attr {
    key: "dtype"
    value {
      type: DT_INT32
    }
  }
  attr {
    key: "value"
    value {
      tensor {
        dtype: DT_INT32
        tensor_shape {
          dim {
            size: 2
          }
        }
        tensor_content: "\000\000\000\000\001\000\000\000"
      }
    }
  }
}
node {
  name: "batch_processing/ParseSingleExample_1/Slice_Indices_image/object/bbox/xmax/size"
  op: "Const"
  attr {
    key: "_output_shapes"
    value {
      list {
        shape {
          dim {
            size: 2
          }
        }
      }
    }
  }
  attr {
    key: "dtype"
    value {
      type: DT_INT32
    }
  }
  attr {
    key: "value"
    value {
      tensor {
        dtype: DT_INT32
        tensor_shape {
          dim {
            size: 2
          }
        }
        tensor_content: "\377\377\377\377\377\377\377\377"
      }
    }
  }
}
node {
  name: "batch_processing/ParseSingleExample_1/Slice_Indices_image/object/bbox/xmax"
  op: "Slice"
  input: "batch_processing/ParseSingleExample_1/ParseExample/ParseExample"
  input: "batch_processing/ParseSingleExample_1/Slice_Indices_image/object/bbox/xmax/begin"
  input: "batch_processing/ParseSingleExample_1/Slice_Indices_image/object/bbox/xmax/size"
  attr {
    key: "Index"
    value {
      type: DT_INT32
    }
  }
  attr {
    key: "T"
    value {
      type: DT_INT64
    }
  }
  attr {
    key: "_output_shapes"
    value {
      list {
        shape {
          dim {
            size: -1
          }
          dim {
            size: 1
          }
        }
      }
    }
  }
}
node {
  name: "batch_processing/ParseSingleExample_1/Squeeze_Shape_image/object/bbox/xmax/begin"
  op: "Const"
  attr {
    key: "_output_shapes"
    value {
      list {
        shape {
          dim {
            size: 1
          }
        }
      }
    }
  }
  attr {
    key: "dtype"
    value {
      type: DT_INT32
    }
  }
  attr {
    key: "value"
    value {
      tensor {
        dtype: DT_INT32
        tensor_shape {
          dim {
            size: 1
          }
        }
        int_val: 1
      }
    }
  }
}
node {
  name: "batch_processing/ParseSingleExample_1/Squeeze_Shape_image/object/bbox/xmax/size"
  op: "Const"
  attr {
    key: "_output_shapes"
    value {
      list {
        shape {
          dim {
            size: 1
          }
        }
      }
    }
  }
  attr {
    key: "dtype"
    value {
      type: DT_INT32
    }
  }
  attr {
    key: "value"
    value {
      tensor {
        dtype: DT_INT32
        tensor_shape {
          dim {
            size: 1
          }
        }
        int_val: -1
      }
    }
  }
}
node {
  name: "batch_processing/ParseSingleExample_1/Squeeze_Shape_image/object/bbox/xmax"
  op: "Slice"
  input: "batch_processing/ParseSingleExample_1/ParseExample/ParseExample:8"
  input: "batch_processing/ParseSingleExample_1/Squeeze_Shape_image/object/bbox/xmax/begin"
  input: "batch_processing/ParseSingleExample_1/Squeeze_Shape_image/object/bbox/xmax/size"
  attr {
    key: "Index"
    value {
      type: DT_INT32
    }
  }
  attr {
    key: "T"
    value {
      type: DT_INT64
    }
  }
  attr {
    key: "_output_shapes"
    value {
      list {
        shape {
          dim {
            size: 1
          }
        }
      }
    }
  }
}
node {
  name: "batch_processing/ParseSingleExample_1/Slice_Indices_image/object/bbox/xmin/begin"
  op: "Const"
  attr {
    key: "_output_shapes"
    value {
      list {
        shape {
          dim {
            size: 2
          }
        }
      }
    }
  }
  attr {
    key: "dtype"
    value {
      type: DT_INT32
    }
  }
  attr {
    key: "value"
    value {
      tensor {
        dtype: DT_INT32
        tensor_shape {
          dim {
            size: 2
          }
        }
        tensor_content: "\000\000\000\000\001\000\000\000"
      }
    }
  }
}
node {
  name: "batch_processing/ParseSingleExample_1/Slice_Indices_image/object/bbox/xmin/size"
  op: "Const"
  attr {
    key: "_output_shapes"
    value {
      list {
        shape {
          dim {
            size: 2
          }
        }
      }
    }
  }
  attr {
    key: "dtype"
    value {
      type: DT_INT32
    }
  }
  attr {
    key: "value"
    value {
      tensor {
        dtype: DT_INT32
        tensor_shape {
          dim {
            size: 2
          }
        }
        tensor_content: "\377\377\377\377\377\377\377\377"
      }
    }
  }
}
node {
  name: "batch_processing/ParseSingleExample_1/Slice_Indices_image/object/bbox/xmin"
  op: "Slice"
  input: "batch_processing/ParseSingleExample_1/ParseExample/ParseExample:1"
  input: "batch_processing/ParseSingleExample_1/Slice_Indices_image/object/bbox/xmin/begin"
  input: "batch_processing/ParseSingleExample_1/Slice_Indices_image/object/bbox/xmin/size"
  attr {
    key: "Index"
    value {
      type: DT_INT32
    }
  }
  attr {
    key: "T"
    value {
      type: DT_INT64
    }
  }
  attr {
    key: "_output_shapes"
    value {
      list {
        shape {
          dim {
            size: -1
          }
          dim {
            size: 1
          }
        }
      }
    }
  }
}
node {
  name: "batch_processing/ParseSingleExample_1/Squeeze_Shape_image/object/bbox/xmin/begin"
  op: "Const"
  attr {
    key: "_output_shapes"
    value {
      list {
        shape {
          dim {
            size: 1
          }
        }
      }
    }
  }
  attr {
    key: "dtype"
    value {
      type: DT_INT32
    }
  }
  attr {
    key: "value"
    value {
      tensor {
        dtype: DT_INT32
        tensor_shape {
          dim {
            size: 1
          }
        }
        int_val: 1
      }
    }
  }
}
node {
  name: "batch_processing/ParseSingleExample_1/Squeeze_Shape_image/object/bbox/xmin/size"
  op: "Const"
  attr {
    key: "_output_shapes"
    value {
      list {
        shape {
          dim {
            size: 1
          }
        }
      }
    }
  }
  attr {
    key: "dtype"
    value {
      type: DT_INT32
    }
  }
  attr {
    key: "value"
    value {
      tensor {
        dtype: DT_INT32
        tensor_shape {
          dim {
            size: 1
          }
        }
        int_val: -1
      }
    }
  }
}
node {
  name: "batch_processing/ParseSingleExample_1/Squeeze_Shape_image/object/bbox/xmin"
  op: "Slice"
  input: "batch_processing/ParseSingleExample_1/ParseExample/ParseExample:9"
  input: "batch_processing/ParseSingleExample_1/Squeeze_Shape_image/object/bbox/xmin/begin"
  input: "batch_processing/ParseSingleExample_1/Squeeze_Shape_image/object/bbox/xmin/size"
  attr {
    key: "Index"
    value {
      type: DT_INT32
    }
  }
  attr {
    key: "T"
    value {
      type: DT_INT64
    }
  }
  attr {
    key: "_output_shapes"
    value {
      list {
        shape {
          dim {
            size: 1
          }
        }
      }
    }
  }
}
node {
  name: "batch_processing/ParseSingleExample_1/Slice_Indices_image/object/bbox/ymax/begin"
  op: "Const"
  attr {
    key: "_output_shapes"
    value {
      list {
        shape {
          dim {
            size: 2
          }
        }
      }
    }
  }
  attr {
    key: "dtype"
    value {
      type: DT_INT32
    }
  }
  attr {
    key: "value"
    value {
      tensor {
        dtype: DT_INT32
        tensor_shape {
          dim {
            size: 2
          }
        }
        tensor_content: "\000\000\000\000\001\000\000\000"
      }
    }
  }
}
node {
  name: "batch_processing/ParseSingleExample_1/Slice_Indices_image/object/bbox/ymax/size"
  op: "Const"
  attr {
    key: "_output_shapes"
    value {
      list {
        shape {
          dim {
            size: 2
          }
        }
      }
    }
  }
  attr {
    key: "dtype"
    value {
      type: DT_INT32
    }
  }
  attr {
    key: "value"
    value {
      tensor {
        dtype: DT_INT32
        tensor_shape {
          dim {
            size: 2
          }
        }
        tensor_content: "\377\377\377\377\377\377\377\377"
      }
    }
  }
}
node {
  name: "batch_processing/ParseSingleExample_1/Slice_Indices_image/object/bbox/ymax"
  op: "Slice"
  input: "batch_processing/ParseSingleExample_1/ParseExample/ParseExample:2"
  input: "batch_processing/ParseSingleExample_1/Slice_Indices_image/object/bbox/ymax/begin"
  input: "batch_processing/ParseSingleExample_1/Slice_Indices_image/object/bbox/ymax/size"
  attr {
    key: "Index"
    value {
      type: DT_INT32
    }
  }
  attr {
    key: "T"
    value {
      type: DT_INT64
    }
  }
  attr {
    key: "_output_shapes"
    value {
      list {
        shape {
          dim {
            size: -1
          }
          dim {
            size: 1
          }
        }
      }
    }
  }
}
node {
  name: "batch_processing/ParseSingleExample_1/Squeeze_Shape_image/object/bbox/ymax/begin"
  op: "Const"
  attr {
    key: "_output_shapes"
    value {
      list {
        shape {
          dim {
            size: 1
          }
        }
      }
    }
  }
  attr {
    key: "dtype"
    value {
      type: DT_INT32
    }
  }
  attr {
    key: "value"
    value {
      tensor {
        dtype: DT_INT32
        tensor_shape {
          dim {
            size: 1
          }
        }
        int_val: 1
      }
    }
  }
}
node {
  name: "batch_processing/ParseSingleExample_1/Squeeze_Shape_image/object/bbox/ymax/size"
  op: "Const"
  attr {
    key: "_output_shapes"
    value {
      list {
        shape {
          dim {
            size: 1
          }
        }
      }
    }
  }
  attr {
    key: "dtype"
    value {
      type: DT_INT32
    }
  }
  attr {
    key: "value"
    value {
      tensor {
        dtype: DT_INT32
        tensor_shape {
          dim {
            size: 1
          }
        }
        int_val: -1
      }
    }
  }
}
node {
  name: "batch_processing/ParseSingleExample_1/Squeeze_Shape_image/object/bbox/ymax"
  op: "Slice"
  input: "batch_processing/ParseSingleExample_1/ParseExample/ParseExample:10"
  input: "batch_processing/ParseSingleExample_1/Squeeze_Shape_image/object/bbox/ymax/begin"
  input: "batch_processing/ParseSingleExample_1/Squeeze_Shape_image/object/bbox/ymax/size"
  attr {
    key: "Index"
    value {
      type: DT_INT32
    }
  }
  attr {
    key: "T"
    value {
      type: DT_INT64
    }
  }
  attr {
    key: "_output_shapes"
    value {
      list {
        shape {
          dim {
            size: 1
          }
        }
      }
    }
  }
}
node {
  name: "batch_processing/ParseSingleExample_1/Slice_Indices_image/object/bbox/ymin/begin"
  op: "Const"
  attr {
    key: "_output_shapes"
    value {
      list {
        shape {
          dim {
            size: 2
          }
        }
      }
    }
  }
  attr {
    key: "dtype"
    value {
      type: DT_INT32
    }
  }
  attr {
    key: "value"
    value {
      tensor {
        dtype: DT_INT32
        tensor_shape {
          dim {
            size: 2
          }
        }
        tensor_content: "\000\000\000\000\001\000\000\000"
      }
    }
  }
}
node {
  name: "batch_processing/ParseSingleExample_1/Slice_Indices_image/object/bbox/ymin/size"
  op: "Const"
  attr {
    key: "_output_shapes"
    value {
      list {
        shape {
          dim {
            size: 2
          }
        }
      }
    }
  }
  attr {
    key: "dtype"
    value {
      type: DT_INT32
    }
  }
  attr {
    key: "value"
    value {
      tensor {
        dtype: DT_INT32
        tensor_shape {
          dim {
            size: 2
          }
        }
        tensor_content: "\377\377\377\377\377\377\377\377"
      }
    }
  }
}
node {
  name: "batch_processing/ParseSingleExample_1/Slice_Indices_image/object/bbox/ymin"
  op: "Slice"
  input: "batch_processing/ParseSingleExample_1/ParseExample/ParseExample:3"
  input: "batch_processing/ParseSingleExample_1/Slice_Indices_image/object/bbox/ymin/begin"
  input: "batch_processing/ParseSingleExample_1/Slice_Indices_image/object/bbox/ymin/size"
  attr {
    key: "Index"
    value {
      type: DT_INT32
    }
  }
  attr {
    key: "T"
    value {
      type: DT_INT64
    }
  }
  attr {
    key: "_output_shapes"
    value {
      list {
        shape {
          dim {
            size: -1
          }
          dim {
            size: 1
          }
        }
      }
    }
  }
}
node {
  name: "batch_processing/ParseSingleExample_1/Squeeze_Shape_image/object/bbox/ymin/begin"
  op: "Const"
  attr {
    key: "_output_shapes"
    value {
      list {
        shape {
          dim {
            size: 1
          }
        }
      }
    }
  }
  attr {
    key: "dtype"
    value {
      type: DT_INT32
    }
  }
  attr {
    key: "value"
    value {
      tensor {
        dtype: DT_INT32
        tensor_shape {
          dim {
            size: 1
          }
        }
        int_val: 1
      }
    }
  }
}
node {
  name: "batch_processing/ParseSingleExample_1/Squeeze_Shape_image/object/bbox/ymin/size"
  op: "Const"
  attr {
    key: "_output_shapes"
    value {
      list {
        shape {
          dim {
            size: 1
          }
        }
      }
    }
  }
  attr {
    key: "dtype"
    value {
      type: DT_INT32
    }
  }
  attr {
    key: "value"
    value {
      tensor {
        dtype: DT_INT32
        tensor_shape {
          dim {
            size: 1
          }
        }
        int_val: -1
      }
    }
  }
}
node {
  name: "batch_processing/ParseSingleExample_1/Squeeze_Shape_image/object/bbox/ymin"
  op: "Slice"
  input: "batch_processing/ParseSingleExample_1/ParseExample/ParseExample:11"
  input: "batch_processing/ParseSingleExample_1/Squeeze_Shape_image/object/bbox/ymin/begin"
  input: "batch_processing/ParseSingleExample_1/Squeeze_Shape_image/object/bbox/ymin/size"
  attr {
    key: "Index"
    value {
      type: DT_INT32
    }
  }
  attr {
    key: "T"
    value {
      type: DT_INT64
    }
  }
  attr {
    key: "_output_shapes"
    value {
      list {
        shape {
          dim {
            size: 1
          }
        }
      }
    }
  }
}
node {
  name: "batch_processing/Cast_1"
  op: "Cast"
  input: "batch_processing/ParseSingleExample_1/Squeeze_image/class/label"
  attr {
    key: "DstT"
    value {
      type: DT_INT32
    }
  }
  attr {
    key: "SrcT"
    value {
      type: DT_INT64
    }
  }
  attr {
    key: "_output_shapes"
    value {
      list {
        shape {
          dim {
            size: 1
          }
        }
      }
    }
  }
}
node {
  name: "batch_processing/ExpandDims_5/dim"
  op: "Const"
  attr {
    key: "_output_shapes"
    value {
      list {
        shape {
        }
      }
    }
  }
  attr {
    key: "dtype"
    value {
      type: DT_INT32
    }
  }
  attr {
    key: "value"
    value {
      tensor {
        dtype: DT_INT32
        tensor_shape {
        }
        int_val: 0
      }
    }
  }
}
node {
  name: "batch_processing/ExpandDims_5"
  op: "ExpandDims"
  input: "batch_processing/ParseSingleExample_1/ParseExample/ParseExample:5"
  input: "batch_processing/ExpandDims_5/dim"
  attr {
    key: "T"
    value {
      type: DT_FLOAT
    }
  }
  attr {
    key: "_output_shapes"
    value {
      list {
        shape {
          dim {
            size: 1
          }
          dim {
            size: -1
          }
        }
      }
    }
  }
}
node {
  name: "batch_processing/ExpandDims_6/dim"
  op: "Const"
  attr {
    key: "_output_shapes"
    value {
      list {
        shape {
        }
      }
    }
  }
  attr {
    key: "dtype"
    value {
      type: DT_INT32
    }
  }
  attr {
    key: "value"
    value {
      tensor {
        dtype: DT_INT32
        tensor_shape {
        }
        int_val: 0
      }
    }
  }
}
node {
  name: "batch_processing/ExpandDims_6"
  op: "ExpandDims"
  input: "batch_processing/ParseSingleExample_1/ParseExample/ParseExample:7"
  input: "batch_processing/ExpandDims_6/dim"
  attr {
    key: "T"
    value {
      type: DT_FLOAT
    }
  }
  attr {
    key: "_output_shapes"
    value {
      list {
        shape {
          dim {
            size: 1
          }
          dim {
            size: -1
          }
        }
      }
    }
  }
}
node {
  name: "batch_processing/ExpandDims_7/dim"
  op: "Const"
  attr {
    key: "_output_shapes"
    value {
      list {
        shape {
        }
      }
    }
  }
  attr {
    key: "dtype"
    value {
      type: DT_INT32
    }
  }
  attr {
    key: "value"
    value {
      tensor {
        dtype: DT_INT32
        tensor_shape {
        }
        int_val: 0
      }
    }
  }
}
node {
  name: "batch_processing/ExpandDims_7"
  op: "ExpandDims"
  input: "batch_processing/ParseSingleExample_1/ParseExample/ParseExample:4"
  input: "batch_processing/ExpandDims_7/dim"
  attr {
    key: "T"
    value {
      type: DT_FLOAT
    }
  }
  attr {
    key: "_output_shapes"
    value {
      list {
        shape {
          dim {
            size: 1
          }
          dim {
            size: -1
          }
        }
      }
    }
  }
}
node {
  name: "batch_processing/ExpandDims_8/dim"
  op: "Const"
  attr {
    key: "_output_shapes"
    value {
      list {
        shape {
        }
      }
    }
  }
  attr {
    key: "dtype"
    value {
      type: DT_INT32
    }
  }
  attr {
    key: "value"
    value {
      tensor {
        dtype: DT_INT32
        tensor_shape {
        }
        int_val: 0
      }
    }
  }
}
node {
  name: "batch_processing/ExpandDims_8"
  op: "ExpandDims"
  input: "batch_processing/ParseSingleExample_1/ParseExample/ParseExample:6"
  input: "batch_processing/ExpandDims_8/dim"
  attr {
    key: "T"
    value {
      type: DT_FLOAT
    }
  }
  attr {
    key: "_output_shapes"
    value {
      list {
        shape {
          dim {
            size: 1
          }
          dim {
            size: -1
          }
        }
      }
    }
  }
}
node {
  name: "batch_processing/concat_1/concat_dim"
  op: "Const"
  attr {
    key: "_output_shapes"
    value {
      list {
        shape {
        }
      }
    }
  }
  attr {
    key: "dtype"
    value {
      type: DT_INT32
    }
  }
  attr {
    key: "value"
    value {
      tensor {
        dtype: DT_INT32
        tensor_shape {
        }
        int_val: 0
      }
    }
  }
}
node {
  name: "batch_processing/concat_1"
  op: "Concat"
  input: "batch_processing/concat_1/concat_dim"
  input: "batch_processing/ExpandDims_6"
  input: "batch_processing/ExpandDims_5"
  input: "batch_processing/ExpandDims_8"
  input: "batch_processing/ExpandDims_7"
  attr {
    key: "N"
    value {
      i: 4
    }
  }
  attr {
    key: "T"
    value {
      type: DT_FLOAT
    }
  }
  attr {
    key: "_output_shapes"
    value {
      list {
        shape {
          dim {
            size: 4
          }
          dim {
            size: -1
          }
        }
      }
    }
  }
}
node {
  name: "batch_processing/ExpandDims_9/dim"
  op: "Const"
  attr {
    key: "_output_shapes"
    value {
      list {
        shape {
        }
      }
    }
  }
  attr {
    key: "dtype"
    value {
      type: DT_INT32
    }
  }
  attr {
    key: "value"
    value {
      tensor {
        dtype: DT_INT32
        tensor_shape {
        }
        int_val: 0
      }
    }
  }
}
node {
  name: "batch_processing/ExpandDims_9"
  op: "ExpandDims"
  input: "batch_processing/concat_1"
  input: "batch_processing/ExpandDims_9/dim"
  attr {
    key: "T"
    value {
      type: DT_FLOAT
    }
  }
  attr {
    key: "_output_shapes"
    value {
      list {
        shape {
          dim {
            size: 1
          }
          dim {
            size: 4
          }
          dim {
            size: -1
          }
        }
      }
    }
  }
}
node {
  name: "batch_processing/transpose_1/perm"
  op: "Const"
  attr {
    key: "_output_shapes"
    value {
      list {
        shape {
          dim {
            size: 3
          }
        }
      }
    }
  }
  attr {
    key: "dtype"
    value {
      type: DT_INT32
    }
  }
  attr {
    key: "value"
    value {
      tensor {
        dtype: DT_INT32
        tensor_shape {
          dim {
            size: 3
          }
        }
        tensor_content: "\000\000\000\000\002\000\000\000\001\000\000\000"
      }
    }
  }
}
node {
  name: "batch_processing/transpose_1"
  op: "Transpose"
  input: "batch_processing/ExpandDims_9"
  input: "batch_processing/transpose_1/perm"
  attr {
    key: "T"
    value {
      type: DT_FLOAT
    }
  }
  attr {
    key: "_output_shapes"
    value {
      list {
        shape {
          dim {
            size: 1
          }
          dim {
            size: -1
          }
          dim {
            size: 4
          }
        }
      }
    }
  }
}
node {
  name: "batch_processing/decode_jpg_1/DecodeJpeg"
  op: "DecodeJpeg"
  input: "batch_processing/ParseSingleExample_1/Squeeze_image/encoded"
  attr {
    key: "_output_shapes"
    value {
      list {
        shape {
          dim {
            size: -1
          }
          dim {
            size: -1
          }
          dim {
            size: 3
          }
        }
      }
    }
  }
  attr {
    key: "acceptable_fraction"
    value {
      f: 1.0
    }
  }
  attr {
    key: "channels"
    value {
      i: 3
    }
  }
  attr {
    key: "fancy_upscaling"
    value {
      b: true
    }
  }
  attr {
    key: "ratio"
    value {
      i: 1
    }
  }
  attr {
    key: "try_recover_truncated"
    value {
      b: false
    }
  }
}
node {
  name: "batch_processing/decode_jpg_1/convert_image/Cast"
  op: "Cast"
  input: "batch_processing/decode_jpg_1/DecodeJpeg"
  attr {
    key: "DstT"
    value {
      type: DT_FLOAT
    }
  }
  attr {
    key: "SrcT"
    value {
      type: DT_UINT8
    }
  }
  attr {
    key: "_output_shapes"
    value {
      list {
        shape {
          dim {
            size: -1
          }
          dim {
            size: -1
          }
          dim {
            size: 3
          }
        }
      }
    }
  }
}
node {
  name: "batch_processing/decode_jpg_1/convert_image/y"
  op: "Const"
  attr {
    key: "_output_shapes"
    value {
      list {
        shape {
        }
      }
    }
  }
  attr {
    key: "dtype"
    value {
      type: DT_FLOAT
    }
  }
  attr {
    key: "value"
    value {
      tensor {
        dtype: DT_FLOAT
        tensor_shape {
        }
        float_val: 0.00392156885937
      }
    }
  }
}
node {
  name: "batch_processing/decode_jpg_1/convert_image"
  op: "Mul"
  input: "batch_processing/decode_jpg_1/convert_image/Cast"
  input: "batch_processing/decode_jpg_1/convert_image/y"
  attr {
    key: "T"
    value {
      type: DT_FLOAT
    }
  }
  attr {
    key: "_output_shapes"
    value {
      list {
        shape {
          dim {
            size: -1
          }
          dim {
            size: -1
          }
          dim {
            size: 3
          }
        }
      }
    }
  }
}
node {
  name: "batch_processing/eval_image_1/Shape"
  op: "Shape"
  input: "batch_processing/decode_jpg_1/convert_image"
  attr {
    key: "T"
    value {
      type: DT_FLOAT
    }
  }
  attr {
    key: "_output_shapes"
    value {
      list {
        shape {
          dim {
            size: 3
          }
        }
      }
    }
  }
}
node {
  name: "batch_processing/eval_image_1/assert_positive/Const"
  op: "Const"
  attr {
    key: "_output_shapes"
    value {
      list {
        shape {
        }
      }
    }
  }
  attr {
    key: "dtype"
    value {
      type: DT_INT32
    }
  }
  attr {
    key: "value"
    value {
      tensor {
        dtype: DT_INT32
        tensor_shape {
        }
        int_val: 0
      }
    }
  }
}
node {
  name: "batch_processing/eval_image_1/assert_positive/assert_less/Less"
  op: "Less"
  input: "batch_processing/eval_image_1/assert_positive/Const"
  input: "batch_processing/eval_image_1/Shape"
  attr {
    key: "T"
    value {
      type: DT_INT32
    }
  }
  attr {
    key: "_output_shapes"
    value {
      list {
        shape {
          dim {
            size: 3
          }
        }
      }
    }
  }
}
node {
  name: "batch_processing/eval_image_1/assert_positive/assert_less/Const"
  op: "Const"
  attr {
    key: "_output_shapes"
    value {
      list {
        shape {
          dim {
            size: 1
          }
        }
      }
    }
  }
  attr {
    key: "dtype"
    value {
      type: DT_INT32
    }
  }
  attr {
    key: "value"
    value {
      tensor {
        dtype: DT_INT32
        tensor_shape {
          dim {
            size: 1
          }
        }
        int_val: 0
      }
    }
  }
}
node {
  name: "batch_processing/eval_image_1/assert_positive/assert_less/All"
  op: "All"
  input: "batch_processing/eval_image_1/assert_positive/assert_less/Less"
  input: "batch_processing/eval_image_1/assert_positive/assert_less/Const"
  attr {
    key: "_output_shapes"
    value {
      list {
        shape {
        }
      }
    }
  }
  attr {
    key: "keep_dims"
    value {
      b: false
    }
  }
}
node {
  name: "batch_processing/eval_image_1/assert_positive/assert_less/Assert/data_0"
  op: "Const"
  attr {
    key: "_output_shapes"
    value {
      list {
        shape {
        }
      }
    }
  }
  attr {
    key: "dtype"
    value {
      type: DT_STRING
    }
  }
  attr {
    key: "value"
    value {
      tensor {
        dtype: DT_STRING
        tensor_shape {
        }
        string_val: "all dims of \'image.shape\' must be > 0."
      }
    }
  }
}
node {
  name: "batch_processing/eval_image_1/assert_positive/assert_less/Assert"
  op: "Assert"
  input: "batch_processing/eval_image_1/assert_positive/assert_less/All"
  input: "batch_processing/eval_image_1/assert_positive/assert_less/Assert/data_0"
  attr {
    key: "T"
    value {
      list {
        type: DT_STRING
      }
    }
  }
  attr {
    key: "summarize"
    value {
      i: 3
    }
  }
}
node {
  name: "batch_processing/eval_image_1/Shape_1"
  op: "Shape"
  input: "batch_processing/decode_jpg_1/convert_image"
  attr {
    key: "T"
    value {
      type: DT_FLOAT
    }
  }
  attr {
    key: "_output_shapes"
    value {
      list {
        shape {
          dim {
            size: 3
          }
        }
      }
    }
  }
}
node {
  name: "batch_processing/eval_image_1/strided_slice/pack"
  op: "Const"
  attr {
    key: "_output_shapes"
    value {
      list {
        shape {
          dim {
            size: 1
          }
        }
      }
    }
  }
  attr {
    key: "dtype"
    value {
      type: DT_INT32
    }
  }
  attr {
    key: "value"
    value {
      tensor {
        dtype: DT_INT32
        tensor_shape {
          dim {
            size: 1
          }
        }
        int_val: 0
      }
    }
  }
}
node {
  name: "batch_processing/eval_image_1/strided_slice/pack_1"
  op: "Const"
  attr {
    key: "_output_shapes"
    value {
      list {
        shape {
          dim {
            size: 1
          }
        }
      }
    }
  }
  attr {
    key: "dtype"
    value {
      type: DT_INT32
    }
  }
  attr {
    key: "value"
    value {
      tensor {
        dtype: DT_INT32
        tensor_shape {
          dim {
            size: 1
          }
        }
        int_val: 1
      }
    }
  }
}
node {
  name: "batch_processing/eval_image_1/strided_slice/pack_2"
  op: "Const"
  attr {
    key: "_output_shapes"
    value {
      list {
        shape {
          dim {
            size: 1
          }
        }
      }
    }
  }
  attr {
    key: "dtype"
    value {
      type: DT_INT32
    }
  }
  attr {
    key: "value"
    value {
      tensor {
        dtype: DT_INT32
        tensor_shape {
          dim {
            size: 1
          }
        }
        int_val: 1
      }
    }
  }
}
node {
  name: "batch_processing/eval_image_1/strided_slice"
  op: "StridedSlice"
  input: "batch_processing/eval_image_1/Shape_1"
  input: "batch_processing/eval_image_1/strided_slice/pack"
  input: "batch_processing/eval_image_1/strided_slice/pack_1"
  input: "batch_processing/eval_image_1/strided_slice/pack_2"
  attr {
    key: "Index"
    value {
      type: DT_INT32
    }
  }
  attr {
    key: "T"
    value {
      type: DT_INT32
    }
  }
  attr {
    key: "_output_shapes"
    value {
      list {
        shape {
        }
      }
    }
  }
  attr {
    key: "begin_mask"
    value {
      i: 0
    }
  }
  attr {
    key: "ellipsis_mask"
    value {
      i: 0
    }
  }
  attr {
    key: "end_mask"
    value {
      i: 0
    }
  }
  attr {
    key: "new_axis_mask"
    value {
      i: 0
    }
  }
  attr {
    key: "shrink_axis_mask"
    value {
      i: 1
    }
  }
}
node {
  name: "batch_processing/eval_image_1/Div/y"
  op: "Const"
  attr {
    key: "_output_shapes"
    value {
      list {
        shape {
        }
      }
    }
  }
  attr {
    key: "dtype"
    value {
      type: DT_INT32
    }
  }
  attr {
    key: "value"
    value {
      tensor {
        dtype: DT_INT32
        tensor_shape {
        }
        int_val: 16
      }
    }
  }
}
node {
  name: "batch_processing/eval_image_1/Div"
  op: "Div"
  input: "batch_processing/eval_image_1/strided_slice"
  input: "batch_processing/eval_image_1/Div/y"
  attr {
    key: "T"
    value {
      type: DT_INT32
    }
  }
  attr {
    key: "_output_shapes"
    value {
      list {
        shape {
        }
      }
    }
  }
}
node {
  name: "batch_processing/eval_image_1/strided_slice_1/pack"
  op: "Const"
  attr {
    key: "_output_shapes"
    value {
      list {
        shape {
          dim {
            size: 1
          }
        }
      }
    }
  }
  attr {
    key: "dtype"
    value {
      type: DT_INT32
    }
  }
  attr {
    key: "value"
    value {
      tensor {
        dtype: DT_INT32
        tensor_shape {
          dim {
            size: 1
          }
        }
        int_val: 1
      }
    }
  }
}
node {
  name: "batch_processing/eval_image_1/strided_slice_1/pack_1"
  op: "Const"
  attr {
    key: "_output_shapes"
    value {
      list {
        shape {
          dim {
            size: 1
          }
        }
      }
    }
  }
  attr {
    key: "dtype"
    value {
      type: DT_INT32
    }
  }
  attr {
    key: "value"
    value {
      tensor {
        dtype: DT_INT32
        tensor_shape {
          dim {
            size: 1
          }
        }
        int_val: 2
      }
    }
  }
}
node {
  name: "batch_processing/eval_image_1/strided_slice_1/pack_2"
  op: "Const"
  attr {
    key: "_output_shapes"
    value {
      list {
        shape {
          dim {
            size: 1
          }
        }
      }
    }
  }
  attr {
    key: "dtype"
    value {
      type: DT_INT32
    }
  }
  attr {
    key: "value"
    value {
      tensor {
        dtype: DT_INT32
        tensor_shape {
          dim {
            size: 1
          }
        }
        int_val: 1
      }
    }
  }
}
node {
  name: "batch_processing/eval_image_1/strided_slice_1"
  op: "StridedSlice"
  input: "batch_processing/eval_image_1/Shape_1"
  input: "batch_processing/eval_image_1/strided_slice_1/pack"
  input: "batch_processing/eval_image_1/strided_slice_1/pack_1"
  input: "batch_processing/eval_image_1/strided_slice_1/pack_2"
  attr {
    key: "Index"
    value {
      type: DT_INT32
    }
  }
  attr {
    key: "T"
    value {
      type: DT_INT32
    }
  }
  attr {
    key: "_output_shapes"
    value {
      list {
        shape {
        }
      }
    }
  }
  attr {
    key: "begin_mask"
    value {
      i: 0
    }
  }
  attr {
    key: "ellipsis_mask"
    value {
      i: 0
    }
  }
  attr {
    key: "end_mask"
    value {
      i: 0
    }
  }
  attr {
    key: "new_axis_mask"
    value {
      i: 0
    }
  }
  attr {
    key: "shrink_axis_mask"
    value {
      i: 1
    }
  }
}
node {
  name: "batch_processing/eval_image_1/Div_1/y"
  op: "Const"
  attr {
    key: "_output_shapes"
    value {
      list {
        shape {
        }
      }
    }
  }
  attr {
    key: "dtype"
    value {
      type: DT_INT32
    }
  }
  attr {
    key: "value"
    value {
      tensor {
        dtype: DT_INT32
        tensor_shape {
        }
        int_val: 16
      }
    }
  }
}
node {
  name: "batch_processing/eval_image_1/Div_1"
  op: "Div"
  input: "batch_processing/eval_image_1/strided_slice_1"
  input: "batch_processing/eval_image_1/Div_1/y"
  attr {
    key: "T"
    value {
      type: DT_INT32
    }
  }
  attr {
    key: "_output_shapes"
    value {
      list {
        shape {
        }
      }
    }
  }
}
node {
  name: "batch_processing/eval_image_1/strided_slice_2/pack"
  op: "Const"
  attr {
    key: "_output_shapes"
    value {
      list {
        shape {
          dim {
            size: 1
          }
        }
      }
    }
  }
  attr {
    key: "dtype"
    value {
      type: DT_INT32
    }
  }
  attr {
    key: "value"
    value {
      tensor {
        dtype: DT_INT32
        tensor_shape {
          dim {
            size: 1
          }
        }
        int_val: 0
      }
    }
  }
}
node {
  name: "batch_processing/eval_image_1/strided_slice_2/pack_1"
  op: "Const"
  attr {
    key: "_output_shapes"
    value {
      list {
        shape {
          dim {
            size: 1
          }
        }
      }
    }
  }
  attr {
    key: "dtype"
    value {
      type: DT_INT32
    }
  }
  attr {
    key: "value"
    value {
      tensor {
        dtype: DT_INT32
        tensor_shape {
          dim {
            size: 1
          }
        }
        int_val: 1
      }
    }
  }
}
node {
  name: "batch_processing/eval_image_1/strided_slice_2/pack_2"
  op: "Const"
  attr {
    key: "_output_shapes"
    value {
      list {
        shape {
          dim {
            size: 1
          }
        }
      }
    }
  }
  attr {
    key: "dtype"
    value {
      type: DT_INT32
    }
  }
  attr {
    key: "value"
    value {
      tensor {
        dtype: DT_INT32
        tensor_shape {
          dim {
            size: 1
          }
        }
        int_val: 1
      }
    }
  }
}
node {
  name: "batch_processing/eval_image_1/strided_slice_2"
  op: "StridedSlice"
  input: "batch_processing/eval_image_1/Shape_1"
  input: "batch_processing/eval_image_1/strided_slice_2/pack"
  input: "batch_processing/eval_image_1/strided_slice_2/pack_1"
  input: "batch_processing/eval_image_1/strided_slice_2/pack_2"
  attr {
    key: "Index"
    value {
      type: DT_INT32
    }
  }
  attr {
    key: "T"
    value {
      type: DT_INT32
    }
  }
  attr {
    key: "_output_shapes"
    value {
      list {
        shape {
        }
      }
    }
  }
  attr {
    key: "begin_mask"
    value {
      i: 0
    }
  }
  attr {
    key: "ellipsis_mask"
    value {
      i: 0
    }
  }
  attr {
    key: "end_mask"
    value {
      i: 0
    }
  }
  attr {
    key: "new_axis_mask"
    value {
      i: 0
    }
  }
  attr {
    key: "shrink_axis_mask"
    value {
      i: 1
    }
  }
}
node {
  name: "batch_processing/eval_image_1/mul/y"
  op: "Const"
  attr {
    key: "_output_shapes"
    value {
      list {
        shape {
        }
      }
    }
  }
  attr {
    key: "dtype"
    value {
      type: DT_INT32
    }
  }
  attr {
    key: "value"
    value {
      tensor {
        dtype: DT_INT32
        tensor_shape {
        }
        int_val: 2
      }
    }
  }
}
node {
  name: "batch_processing/eval_image_1/mul"
  op: "Mul"
  input: "batch_processing/eval_image_1/Div"
  input: "batch_processing/eval_image_1/mul/y"
  attr {
    key: "T"
    value {
      type: DT_INT32
    }
  }
  attr {
    key: "_output_shapes"
    value {
      list {
        shape {
        }
      }
    }
  }
}
node {
  name: "batch_processing/eval_image_1/sub"
  op: "Sub"
  input: "batch_processing/eval_image_1/strided_slice_2"
  input: "batch_processing/eval_image_1/mul"
  attr {
    key: "T"
    value {
      type: DT_INT32
    }
  }
  attr {
    key: "_output_shapes"
    value {
      list {
        shape {
        }
      }
    }
  }
}
node {
  name: "batch_processing/eval_image_1/strided_slice_3/pack"
  op: "Const"
  attr {
    key: "_output_shapes"
    value {
      list {
        shape {
          dim {
            size: 1
          }
        }
      }
    }
  }
  attr {
    key: "dtype"
    value {
      type: DT_INT32
    }
  }
  attr {
    key: "value"
    value {
      tensor {
        dtype: DT_INT32
        tensor_shape {
          dim {
            size: 1
          }
        }
        int_val: 1
      }
    }
  }
}
node {
  name: "batch_processing/eval_image_1/strided_slice_3/pack_1"
  op: "Const"
  attr {
    key: "_output_shapes"
    value {
      list {
        shape {
          dim {
            size: 1
          }
        }
      }
    }
  }
  attr {
    key: "dtype"
    value {
      type: DT_INT32
    }
  }
  attr {
    key: "value"
    value {
      tensor {
        dtype: DT_INT32
        tensor_shape {
          dim {
            size: 1
          }
        }
        int_val: 2
      }
    }
  }
}
node {
  name: "batch_processing/eval_image_1/strided_slice_3/pack_2"
  op: "Const"
  attr {
    key: "_output_shapes"
    value {
      list {
        shape {
          dim {
            size: 1
          }
        }
      }
    }
  }
  attr {
    key: "dtype"
    value {
      type: DT_INT32
    }
  }
  attr {
    key: "value"
    value {
      tensor {
        dtype: DT_INT32
        tensor_shape {
          dim {
            size: 1
          }
        }
        int_val: 1
      }
    }
  }
}
node {
  name: "batch_processing/eval_image_1/strided_slice_3"
  op: "StridedSlice"
  input: "batch_processing/eval_image_1/Shape_1"
  input: "batch_processing/eval_image_1/strided_slice_3/pack"
  input: "batch_processing/eval_image_1/strided_slice_3/pack_1"
  input: "batch_processing/eval_image_1/strided_slice_3/pack_2"
  attr {
    key: "Index"
    value {
      type: DT_INT32
    }
  }
  attr {
    key: "T"
    value {
      type: DT_INT32
    }
  }
  attr {
    key: "_output_shapes"
    value {
      list {
        shape {
        }
      }
    }
  }
  attr {
    key: "begin_mask"
    value {
      i: 0
    }
  }
  attr {
    key: "ellipsis_mask"
    value {
      i: 0
    }
  }
  attr {
    key: "end_mask"
    value {
      i: 0
    }
  }
  attr {
    key: "new_axis_mask"
    value {
      i: 0
    }
  }
  attr {
    key: "shrink_axis_mask"
    value {
      i: 1
    }
  }
}
node {
  name: "batch_processing/eval_image_1/mul_1/y"
  op: "Const"
  attr {
    key: "_output_shapes"
    value {
      list {
        shape {
        }
      }
    }
  }
  attr {
    key: "dtype"
    value {
      type: DT_INT32
    }
  }
  attr {
    key: "value"
    value {
      tensor {
        dtype: DT_INT32
        tensor_shape {
        }
        int_val: 2
      }
    }
  }
}
node {
  name: "batch_processing/eval_image_1/mul_1"
  op: "Mul"
  input: "batch_processing/eval_image_1/Div_1"
  input: "batch_processing/eval_image_1/mul_1/y"
  attr {
    key: "T"
    value {
      type: DT_INT32
    }
  }
  attr {
    key: "_output_shapes"
    value {
      list {
        shape {
        }
      }
    }
  }
}
node {
  name: "batch_processing/eval_image_1/sub_1"
  op: "Sub"
  input: "batch_processing/eval_image_1/strided_slice_3"
  input: "batch_processing/eval_image_1/mul_1"
  attr {
    key: "T"
    value {
      type: DT_INT32
    }
  }
  attr {
    key: "_output_shapes"
    value {
      list {
        shape {
        }
      }
    }
  }
}
node {
  name: "batch_processing/eval_image_1/pack/2"
  op: "Const"
  attr {
    key: "_output_shapes"
    value {
      list {
        shape {
        }
      }
    }
  }
  attr {
    key: "dtype"
    value {
      type: DT_INT32
    }
  }
  attr {
    key: "value"
    value {
      tensor {
        dtype: DT_INT32
        tensor_shape {
        }
        int_val: 0
      }
    }
  }
}
node {
  name: "batch_processing/eval_image_1/pack"
  op: "Pack"
  input: "batch_processing/eval_image_1/Div"
  input: "batch_processing/eval_image_1/Div_1"
  input: "batch_processing/eval_image_1/pack/2"
  attr {
    key: "N"
    value {
      i: 3
    }
  }
  attr {
    key: "T"
    value {
      type: DT_INT32
    }
  }
  attr {
    key: "_output_shapes"
    value {
      list {
        shape {
          dim {
            size: 3
          }
        }
      }
    }
  }
  attr {
    key: "axis"
    value {
      i: 0
    }
  }
}
node {
  name: "batch_processing/eval_image_1/pack_1/2"
  op: "Const"
  attr {
    key: "_output_shapes"
    value {
      list {
        shape {
        }
      }
    }
  }
  attr {
    key: "dtype"
    value {
      type: DT_INT32
    }
  }
  attr {
    key: "value"
    value {
      tensor {
        dtype: DT_INT32
        tensor_shape {
        }
        int_val: -1
      }
    }
  }
}
node {
  name: "batch_processing/eval_image_1/pack_1"
  op: "Pack"
  input: "batch_processing/eval_image_1/sub"
  input: "batch_processing/eval_image_1/sub_1"
  input: "batch_processing/eval_image_1/pack_1/2"
  attr {
    key: "N"
    value {
      i: 3
    }
  }
  attr {
    key: "T"
    value {
      type: DT_INT32
    }
  }
  attr {
    key: "_output_shapes"
    value {
      list {
        shape {
          dim {
            size: 3
          }
        }
      }
    }
  }
  attr {
    key: "axis"
    value {
      i: 0
    }
  }
}
node {
  name: "batch_processing/eval_image_1/Slice"
  op: "Slice"
  input: "batch_processing/decode_jpg_1/convert_image"
  input: "batch_processing/eval_image_1/pack"
  input: "batch_processing/eval_image_1/pack_1"
  attr {
    key: "Index"
    value {
      type: DT_INT32
    }
  }
  attr {
    key: "T"
    value {
      type: DT_FLOAT
    }
  }
  attr {
    key: "_output_shapes"
    value {
      list {
        shape {
          dim {
            size: -1
          }
          dim {
            size: -1
          }
          dim {
            size: 3
          }
        }
      }
    }
  }
}
node {
  name: "batch_processing/eval_image_1/ExpandDims/dim"
  op: "Const"
  attr {
    key: "_output_shapes"
    value {
      list {
        shape {
        }
      }
    }
  }
  attr {
    key: "dtype"
    value {
      type: DT_INT32
    }
  }
  attr {
    key: "value"
    value {
      tensor {
        dtype: DT_INT32
        tensor_shape {
        }
        int_val: 0
      }
    }
  }
}
node {
  name: "batch_processing/eval_image_1/ExpandDims"
  op: "ExpandDims"
  input: "batch_processing/eval_image_1/Slice"
  input: "batch_processing/eval_image_1/ExpandDims/dim"
  attr {
    key: "T"
    value {
      type: DT_FLOAT
    }
  }
  attr {
    key: "_output_shapes"
    value {
      list {
        shape {
          dim {
            size: 1
          }
          dim {
            size: -1
          }
          dim {
            size: -1
          }
          dim {
            size: 3
          }
        }
      }
    }
  }
}
node {
  name: "batch_processing/eval_image_1/ResizeBilinear/size"
  op: "Const"
  attr {
    key: "_output_shapes"
    value {
      list {
        shape {
          dim {
            size: 2
          }
        }
      }
    }
  }
  attr {
    key: "dtype"
    value {
      type: DT_INT32
    }
  }
  attr {
    key: "value"
    value {
      tensor {
        dtype: DT_INT32
        tensor_shape {
          dim {
            size: 2
          }
        }
        tensor_content: "+\001\000\000+\001\000\000"
      }
    }
  }
}
node {
  name: "batch_processing/eval_image_1/ResizeBilinear"
  op: "ResizeBilinear"
  input: "batch_processing/eval_image_1/ExpandDims"
  input: "batch_processing/eval_image_1/ResizeBilinear/size"
  attr {
    key: "T"
    value {
      type: DT_FLOAT
    }
  }
  attr {
    key: "_output_shapes"
    value {
      list {
        shape {
          dim {
            size: 1
          }
          dim {
            size: 299
          }
          dim {
            size: 299
          }
          dim {
            size: 3
          }
        }
      }
    }
  }
  attr {
    key: "align_corners"
    value {
      b: false
    }
  }
}
node {
  name: "batch_processing/eval_image_1/Squeeze"
  op: "Squeeze"
  input: "batch_processing/eval_image_1/ResizeBilinear"
  attr {
    key: "T"
    value {
      type: DT_FLOAT
    }
  }
  attr {
    key: "_output_shapes"
    value {
      list {
        shape {
          dim {
            size: 299
          }
          dim {
            size: 299
          }
          dim {
            size: 3
          }
        }
      }
    }
  }
  attr {
    key: "squeeze_dims"
    value {
      list {
        i: 0
      }
    }
  }
}
node {
  name: "batch_processing/Sub_1/y"
  op: "Const"
  attr {
    key: "_output_shapes"
    value {
      list {
        shape {
        }
      }
    }
  }
  attr {
    key: "dtype"
    value {
      type: DT_FLOAT
    }
  }
  attr {
    key: "value"
    value {
      tensor {
        dtype: DT_FLOAT
        tensor_shape {
        }
        float_val: 0.5
      }
    }
  }
}
node {
  name: "batch_processing/Sub_1"
  op: "Sub"
  input: "batch_processing/eval_image_1/Squeeze"
  input: "batch_processing/Sub_1/y"
  attr {
    key: "T"
    value {
      type: DT_FLOAT
    }
  }
  attr {
    key: "_output_shapes"
    value {
      list {
        shape {
          dim {
            size: 299
          }
          dim {
            size: 299
          }
          dim {
            size: 3
          }
        }
      }
    }
  }
}
node {
  name: "batch_processing/Mul_1/y"
  op: "Const"
  attr {
    key: "_output_shapes"
    value {
      list {
        shape {
        }
      }
    }
  }
  attr {
    key: "dtype"
    value {
      type: DT_FLOAT
    }
  }
  attr {
    key: "value"
    value {
      tensor {
        dtype: DT_FLOAT
        tensor_shape {
        }
        float_val: 2.0
      }
    }
  }
}
node {
  name: "batch_processing/Mul_1"
  op: "Mul"
  input: "batch_processing/Sub_1"
  input: "batch_processing/Mul_1/y"
  attr {
    key: "T"
    value {
      type: DT_FLOAT
    }
  }
  attr {
    key: "_output_shapes"
    value {
      list {
        shape {
          dim {
            size: 299
          }
          dim {
            size: 299
          }
          dim {
            size: 3
          }
        }
      }
    }
  }
}
node {
  name: "batch_processing/ParseSingleExample_2/ExpandDims/dim"
  op: "Const"
  attr {
    key: "_output_shapes"
    value {
      list {
        shape {
        }
      }
    }
  }
  attr {
    key: "dtype"
    value {
      type: DT_INT32
    }
  }
  attr {
    key: "value"
    value {
      tensor {
        dtype: DT_INT32
        tensor_shape {
        }
        int_val: 0
      }
    }
  }
}
node {
  name: "batch_processing/ParseSingleExample_2/ExpandDims"
  op: "ExpandDims"
  input: "batch_processing/ReaderRead:1"
  input: "batch_processing/ParseSingleExample_2/ExpandDims/dim"
  attr {
    key: "T"
    value {
      type: DT_STRING
    }
  }
  attr {
    key: "_output_shapes"
    value {
      list {
        shape {
          dim {
            size: 1
          }
        }
      }
    }
  }
}
node {
  name: "batch_processing/ParseSingleExample_2/ParseExample/key_image/class/label"
  op: "Const"
  attr {
    key: "_output_shapes"
    value {
      list {
        shape {
        }
      }
    }
  }
  attr {
    key: "dtype"
    value {
      type: DT_INT64
    }
  }
  attr {
    key: "value"
    value {
      tensor {
        dtype: DT_INT64
        tensor_shape {
        }
        int64_val: -1
      }
    }
  }
}
node {
  name: "batch_processing/ParseSingleExample_2/ParseExample/Reshape/shape"
  op: "Const"
  attr {
    key: "_output_shapes"
    value {
      list {
        shape {
          dim {
            size: 1
          }
        }
      }
    }
  }
  attr {
    key: "dtype"
    value {
      type: DT_INT32
    }
  }
  attr {
    key: "value"
    value {
      tensor {
        dtype: DT_INT32
        tensor_shape {
          dim {
            size: 1
          }
        }
        int_val: 1
      }
    }
  }
}
node {
  name: "batch_processing/ParseSingleExample_2/ParseExample/Reshape"
  op: "Reshape"
  input: "batch_processing/ParseSingleExample_2/ParseExample/key_image/class/label"
  input: "batch_processing/ParseSingleExample_2/ParseExample/Reshape/shape"
  attr {
    key: "T"
    value {
      type: DT_INT64
    }
  }
  attr {
    key: "_output_shapes"
    value {
      list {
        shape {
          dim {
            size: 1
          }
        }
      }
    }
  }
}
node {
  name: "batch_processing/ParseSingleExample_2/ParseExample/key_image/class/text"
  op: "Const"
  attr {
    key: "_output_shapes"
    value {
      list {
        shape {
        }
      }
    }
  }
  attr {
    key: "dtype"
    value {
      type: DT_STRING
    }
  }
  attr {
    key: "value"
    value {
      tensor {
        dtype: DT_STRING
        tensor_shape {
        }
        string_val: ""
      }
    }
  }
}
node {
  name: "batch_processing/ParseSingleExample_2/ParseExample/Reshape_1/shape"
  op: "Const"
  attr {
    key: "_output_shapes"
    value {
      list {
        shape {
          dim {
          }
        }
      }
    }
  }
  attr {
    key: "dtype"
    value {
      type: DT_INT32
    }
  }
  attr {
    key: "value"
    value {
      tensor {
        dtype: DT_INT32
        tensor_shape {
          dim {
          }
        }
      }
    }
  }
}
node {
  name: "batch_processing/ParseSingleExample_2/ParseExample/Reshape_1"
  op: "Reshape"
  input: "batch_processing/ParseSingleExample_2/ParseExample/key_image/class/text"
  input: "batch_processing/ParseSingleExample_2/ParseExample/Reshape_1/shape"
  attr {
    key: "T"
    value {
      type: DT_STRING
    }
  }
  attr {
    key: "_output_shapes"
    value {
      list {
        shape {
        }
      }
    }
  }
}
node {
  name: "batch_processing/ParseSingleExample_2/ParseExample/key_image/encoded"
  op: "Const"
  attr {
    key: "_output_shapes"
    value {
      list {
        shape {
        }
      }
    }
  }
  attr {
    key: "dtype"
    value {
      type: DT_STRING
    }
  }
  attr {
    key: "value"
    value {
      tensor {
        dtype: DT_STRING
        tensor_shape {
        }
        string_val: ""
      }
    }
  }
}
node {
  name: "batch_processing/ParseSingleExample_2/ParseExample/Reshape_2/shape"
  op: "Const"
  attr {
    key: "_output_shapes"
    value {
      list {
        shape {
          dim {
          }
        }
      }
    }
  }
  attr {
    key: "dtype"
    value {
      type: DT_INT32
    }
  }
  attr {
    key: "value"
    value {
      tensor {
        dtype: DT_INT32
        tensor_shape {
          dim {
          }
        }
      }
    }
  }
}
node {
  name: "batch_processing/ParseSingleExample_2/ParseExample/Reshape_2"
  op: "Reshape"
  input: "batch_processing/ParseSingleExample_2/ParseExample/key_image/encoded"
  input: "batch_processing/ParseSingleExample_2/ParseExample/Reshape_2/shape"
  attr {
    key: "T"
    value {
      type: DT_STRING
    }
  }
  attr {
    key: "_output_shapes"
    value {
      list {
        shape {
        }
      }
    }
  }
}
node {
  name: "batch_processing/ParseSingleExample_2/ParseExample/ParseExample/names"
  op: "Const"
  attr {
    key: "_output_shapes"
    value {
      list {
        shape {
          dim {
          }
        }
      }
    }
  }
  attr {
    key: "dtype"
    value {
      type: DT_STRING
    }
  }
  attr {
    key: "value"
    value {
      tensor {
        dtype: DT_STRING
        tensor_shape {
          dim {
          }
        }
      }
    }
  }
}
node {
  name: "batch_processing/ParseSingleExample_2/ParseExample/ParseExample/sparse_keys_0"
  op: "Const"
  attr {
    key: "_output_shapes"
    value {
      list {
        shape {
        }
      }
    }
  }
  attr {
    key: "dtype"
    value {
      type: DT_STRING
    }
  }
  attr {
    key: "value"
    value {
      tensor {
        dtype: DT_STRING
        tensor_shape {
        }
        string_val: "image/object/bbox/xmax"
      }
    }
  }
}
node {
  name: "batch_processing/ParseSingleExample_2/ParseExample/ParseExample/sparse_keys_1"
  op: "Const"
  attr {
    key: "_output_shapes"
    value {
      list {
        shape {
        }
      }
    }
  }
  attr {
    key: "dtype"
    value {
      type: DT_STRING
    }
  }
  attr {
    key: "value"
    value {
      tensor {
        dtype: DT_STRING
        tensor_shape {
        }
        string_val: "image/object/bbox/xmin"
      }
    }
  }
}
node {
  name: "batch_processing/ParseSingleExample_2/ParseExample/ParseExample/sparse_keys_2"
  op: "Const"
  attr {
    key: "_output_shapes"
    value {
      list {
        shape {
        }
      }
    }
  }
  attr {
    key: "dtype"
    value {
      type: DT_STRING
    }
  }
  attr {
    key: "value"
    value {
      tensor {
        dtype: DT_STRING
        tensor_shape {
        }
        string_val: "image/object/bbox/ymax"
      }
    }
  }
}
node {
  name: "batch_processing/ParseSingleExample_2/ParseExample/ParseExample/sparse_keys_3"
  op: "Const"
  attr {
    key: "_output_shapes"
    value {
      list {
        shape {
        }
      }
    }
  }
  attr {
    key: "dtype"
    value {
      type: DT_STRING
    }
  }
  attr {
    key: "value"
    value {
      tensor {
        dtype: DT_STRING
        tensor_shape {
        }
        string_val: "image/object/bbox/ymin"
      }
    }
  }
}
node {
  name: "batch_processing/ParseSingleExample_2/ParseExample/ParseExample/dense_keys_0"
  op: "Const"
  attr {
    key: "_output_shapes"
    value {
      list {
        shape {
        }
      }
    }
  }
  attr {
    key: "dtype"
    value {
      type: DT_STRING
    }
  }
  attr {
    key: "value"
    value {
      tensor {
        dtype: DT_STRING
        tensor_shape {
        }
        string_val: "image/class/label"
      }
    }
  }
}
node {
  name: "batch_processing/ParseSingleExample_2/ParseExample/ParseExample/dense_keys_1"
  op: "Const"
  attr {
    key: "_output_shapes"
    value {
      list {
        shape {
        }
      }
    }
  }
  attr {
    key: "dtype"
    value {
      type: DT_STRING
    }
  }
  attr {
    key: "value"
    value {
      tensor {
        dtype: DT_STRING
        tensor_shape {
        }
        string_val: "image/class/text"
      }
    }
  }
}
node {
  name: "batch_processing/ParseSingleExample_2/ParseExample/ParseExample/dense_keys_2"
  op: "Const"
  attr {
    key: "_output_shapes"
    value {
      list {
        shape {
        }
      }
    }
  }
  attr {
    key: "dtype"
    value {
      type: DT_STRING
    }
  }
  attr {
    key: "value"
    value {
      tensor {
        dtype: DT_STRING
        tensor_shape {
        }
        string_val: "image/encoded"
      }
    }
  }
}
node {
  name: "batch_processing/ParseSingleExample_2/ParseExample/ParseExample"
…
  input: "report_uninitialized_variables/IsVariableInitialized"
  input: "report_uninitialized_variables/IsVariableInitialized_1"
  input: "report_uninitialized_variables/IsVariableInitialized_2"
  input: "report_uninitialized_variables/IsVariableInitialized_3"
  input: "report_uninitialized_variables/IsVariableInitialized_4"
  input: "report_uninitialized_variables/IsVariableInitialized_5"
  input: "report_uninitialized_variables/IsVariableInitialized_6"
  input: "report_uninitialized_variables/IsVariableInitialized_7"
  input: "report_uninitialized_variables/IsVariableInitialized_8"
  input: "report_uninitialized_variables/IsVariableInitialized_9"
  input: "report_uninitialized_variables/IsVariableInitialized_10"
  input: "report_uninitialized_variables/IsVariableInitialized_11"
  input: "report_uninitialized_variables/IsVariableInitialized_12"
  input: "report_uninitialized_variables/IsVariableInitialized_13"
  input: "report_uninitialized_variables/IsVariableInitialized_14"
  input: "report_uninitialized_variables/IsVariableInitialized_15"
  input: "report_uninitialized_variables/IsVariableInitialized_16"
  input: "report_uninitialized_variables/IsVariableInitialized_17"
  input: "report_uninitialized_variables/IsVariableInitialized_18"
  input: "report_uninitialized_variables/IsVariableInitialized_19"
  input: "report_uninitialized_variables/IsVariableInitialized_20"
  input: "report_uninitialized_variables/IsVariableInitialized_21"
  input: "report_uninitialized_variables/IsVariableInitialized_22"
  input: "report_uninitialized_variables/IsVariableInitialized_23"
  input: "report_uninitialized_variables/IsVariableInitialized_24"
  input: "report_uninitialized_variables/IsVariableInitialized_25"
  input: "report_uninitialized_variables/IsVariableInitialized_26"
  input: "report_uninitialized_variables/IsVariableInitialized_27"
  input: "report_uninitialized_variables/IsVariableInitialized_28"
  input: "report_uninitialized_variables/IsVariableInitialized_29"
  input: "report_uninitialized_variables/IsVariableInitialized_30"
  input: "report_uninitialized_variables/IsVariableInitialized_31"
  input: "report_uninitialized_variables/IsVariableInitialized_32"
  input: "report_uninitialized_variables/IsVariableInitialized_33"
  input: "report_uninitialized_variables/IsVariableInitialized_34"
  input: "report_uninitialized_variables/IsVariableInitialized_35"
  input: "report_uninitialized_variables/IsVariableInitialized_36"
  input: "report_uninitialized_variables/IsVariableInitialized_37"
  input: "report_uninitialized_variables/IsVariableInitialized_38"
  input: "report_uninitialized_variables/IsVariableInitialized_39"
  input: "report_uninitialized_variables/IsVariableInitialized_40"
  input: "report_uninitialized_variables/IsVariableInitialized_41"
  input: "report_uninitialized_variables/IsVariableInitialized_42"
  input: "report_uninitialized_variables/IsVariableInitialized_43"
  input: "report_uninitialized_variables/IsVariableInitialized_44"
  input: "report_uninitialized_variables/IsVariableInitialized_45"
  input: "report_uninitialized_variables/IsVariableInitialized_46"
  input: "report_uninitialized_variables/IsVariableInitialized_47"
  input: "report_uninitialized_variables/IsVariableInitialized_48"
  input: "report_uninitialized_variables/IsVariableInitialized_49"
  input: "report_uninitialized_variables/IsVariableInitialized_50"
  input: "report_uninitialized_variables/IsVariableInitialized_51"
  input: "report_uninitialized_variables/IsVariableInitialized_52"
  input: "report_uninitialized_variables/IsVariableInitialized_53"
  input: "report_uninitialized_variables/IsVariableInitialized_54"
  input: "report_uninitialized_variables/IsVariableInitialized_55"
  input: "report_uninitialized_variables/IsVariableInitialized_56"
  input: "report_uninitialized_variables/IsVariableInitialized_57"
  input: "report_uninitialized_variables/IsVariableInitialized_58"
  input: "report_uninitialized_variables/IsVariableInitialized_59"
  input: "report_uninitialized_variables/IsVariableInitialized_60"
  input: "report_uninitialized_variables/IsVariableInitialized_61"
  input: "report_uninitialized_variables/IsVariableInitialized_62"
  input: "report_uninitialized_variables/IsVariableInitialized_63"
  input: "report_uninitialized_variables/IsVariableInitialized_64"
  input: "report_uninitialized_variables/IsVariableInitialized_65"
  input: "report_uninitialized_variables/IsVariableInitialized_66"
  input: "report_uninitialized_variables/IsVariableInitialized_67"
  input: "report_uninitialized_variables/IsVariableInitialized_68"
  input: "report_uninitialized_variables/IsVariableInitialized_69"
  input: "report_uninitialized_variables/IsVariableInitialized_70"
  input: "report_uninitialized_variables/IsVariableInitialized_71"
  input: "report_uninitialized_variables/IsVariableInitialized_72"
  input: "report_uninitialized_variables/IsVariableInitialized_73"
  input: "report_uninitialized_variables/IsVariableInitialized_74"
  input: "report_uninitialized_variables/IsVariableInitialized_75"
  input: "report_uninitialized_variables/IsVariableInitialized_76"
  input: "report_uninitialized_variables/IsVariableInitialized_77"
  input: "report_uninitialized_variables/IsVariableInitialized_78"
  input: "report_uninitialized_variables/IsVariableInitialized_79"
  input: "report_uninitialized_variables/IsVariableInitialized_80"
  input: "report_uninitialized_variables/IsVariableInitialized_81"
  input: "report_uninitialized_variables/IsVariableInitialized_82"
  input: "report_uninitialized_variables/IsVariableInitialized_83"
  input: "report_uninitialized_variables/IsVariableInitialized_84"
  input: "report_uninitialized_variables/IsVariableInitialized_85"
  input: "report_uninitialized_variables/IsVariableInitialized_86"
  input: "report_uninitialized_variables/IsVariableInitialized_87"
  input: "report_uninitialized_variables/IsVariableInitialized_88"
  input: "report_uninitialized_variables/IsVariableInitialized_89"
  input: "report_uninitialized_variables/IsVariableInitialized_90"
  input: "report_uninitialized_variables/IsVariableInitialized_91"
  input: "report_uninitialized_variables/IsVariableInitialized_92"
  input: "report_uninitialized_variables/IsVariableInitialized_93"
  input: "report_uninitialized_variables/IsVariableInitialized_94"
  input: "report_uninitialized_variables/IsVariableInitialized_95"
  input: "report_uninitialized_variables/IsVariableInitialized_96"
  input: "report_uninitialized_variables/IsVariableInitialized_97"
  input: "report_uninitialized_variables/IsVariableInitialized_98"
  input: "report_uninitialized_variables/IsVariableInitialized_99"
  input: "report_uninitialized_variables/IsVariableInitialized_100"
  input: "report_uninitialized_variables/IsVariableInitialized_101"
  input: "report_uninitialized_variables/IsVariableInitialized_102"
  input: "report_uninitialized_variables/IsVariableInitialized_103"
  input: "report_uninitialized_variables/IsVariableInitialized_104"
  input: "report_uninitialized_variables/IsVariableInitialized_105"
  input: "report_uninitialized_variables/IsVariableInitialized_106"
  input: "report_uninitialized_variables/IsVariableInitialized_107"
  input: "report_uninitialized_variables/IsVariableInitialized_108"
  input: "report_uninitialized_variables/IsVariableInitialized_109"
  input: "report_uninitialized_variables/IsVariableInitialized_110"
  input: "report_uninitialized_variables/IsVariableInitialized_111"
  input: "report_uninitialized_variables/IsVariableInitialized_112"
  input: "report_uninitialized_variables/IsVariableInitialized_113"
  input: "report_uninitialized_variables/IsVariableInitialized_114"
  input: "report_uninitialized_variables/IsVariableInitialized_115"
  input: "report_uninitialized_variables/IsVariableInitialized_116"
  input: "report_uninitialized_variables/IsVariableInitialized_117"
  input: "report_uninitialized_variables/IsVariableInitialized_118"
  input: "report_uninitialized_variables/IsVariableInitialized_119"
  input: "report_uninitialized_variables/IsVariableInitialized_120"
  input: "report_uninitialized_variables/IsVariableInitialized_121"
  input: "report_uninitialized_variables/IsVariableInitialized_122"
  input: "report_uninitialized_variables/IsVariableInitialized_123"
  input: "report_uninitialized_variables/IsVariableInitialized_124"
  input: "report_uninitialized_variables/IsVariableInitialized_125"
  input: "report_uninitialized_variables/IsVariableInitialized_126"
  input: "report_uninitialized_variables/IsVariableInitialized_127"
  input: "report_uninitialized_variables/IsVariableInitialized_128"
  input: "report_uninitialized_variables/IsVariableInitialized_129"
  input: "report_uninitialized_variables/IsVariableInitialized_130"
  input: "report_uninitialized_variables/IsVariableInitialized_131"
  input: "report_uninitialized_variables/IsVariableInitialized_132"
  input: "report_uninitialized_variables/IsVariableInitialized_133"
  input: "report_uninitialized_variables/IsVariableInitialized_134"
  input: "report_uninitialized_variables/IsVariableInitialized_135"
  input: "report_uninitialized_variables/IsVariableInitialized_136"
  input: "report_uninitialized_variables/IsVariableInitialized_137"
  input: "report_uninitialized_variables/IsVariableInitialized_138"
  input: "report_uninitialized_variables/IsVariableInitialized_139"
  input: "report_uninitialized_variables/IsVariableInitialized_140"
  input: "report_uninitialized_variables/IsVariableInitialized_141"
  input: "report_uninitialized_variables/IsVariableInitialized_142"
  input: "report_uninitialized_variables/IsVariableInitialized_143"
  input: "report_uninitialized_variables/IsVariableInitialized_144"
  input: "report_uninitialized_variables/IsVariableInitialized_145"
  input: "report_uninitialized_variables/IsVariableInitialized_146"
  input: "report_uninitialized_variables/IsVariableInitialized_147"
  input: "report_uninitialized_variables/IsVariableInitialized_148"
  input: "report_uninitialized_variables/IsVariableInitialized_149"
  input: "report_uninitialized_variables/IsVariableInitialized_150"
  input: "report_uninitialized_variables/IsVariableInitialized_151"
  input: "report_uninitialized_variables/IsVariableInitialized_152"
  input: "report_uninitialized_variables/IsVariableInitialized_153"
  input: "report_uninitialized_variables/IsVariableInitialized_154"
  input: "report_uninitialized_variables/IsVariableInitialized_155"
  input: "report_uninitialized_variables/IsVariableInitialized_156"
  input: "report_uninitialized_variables/IsVariableInitialized_157"
  input: "report_uninitialized_variables/IsVariableInitialized_158"
  input: "report_uninitialized_variables/IsVariableInitialized_159"
  input: "report_uninitialized_variables/IsVariableInitialized_160"
  input: "report_uninitialized_variables/IsVariableInitialized_161"
  input: "report_uninitialized_variables/IsVariableInitialized_162"
  input: "report_uninitialized_variables/IsVariableInitialized_163"
  input: "report_uninitialized_variables/IsVariableInitialized_164"
  input: "report_uninitialized_variables/IsVariableInitialized_165"
  input: "report_uninitialized_variables/IsVariableInitialized_166"
  input: "report_uninitialized_variables/IsVariableInitialized_167"
  input: "report_uninitialized_variables/IsVariableInitialized_168"
  input: "report_uninitialized_variables/IsVariableInitialized_169"
  input: "report_uninitialized_variables/IsVariableInitialized_170"
  input: "report_uninitialized_variables/IsVariableInitialized_171"
  input: "report_uninitialized_variables/IsVariableInitialized_172"
  input: "report_uninitialized_variables/IsVariableInitialized_173"
  input: "report_uninitialized_variables/IsVariableInitialized_174"
  input: "report_uninitialized_variables/IsVariableInitialized_175"
  input: "report_uninitialized_variables/IsVariableInitialized_176"
  input: "report_uninitialized_variables/IsVariableInitialized_177"
  input: "report_uninitialized_variables/IsVariableInitialized_178"
  input: "report_uninitialized_variables/IsVariableInitialized_179"
  input: "report_uninitialized_variables/IsVariableInitialized_180"
  input: "report_uninitialized_variables/IsVariableInitialized_181"
  input: "report_uninitialized_variables/IsVariableInitialized_182"
  input: "report_uninitialized_variables/IsVariableInitialized_183"
  input: "report_uninitialized_variables/IsVariableInitialized_184"
  input: "report_uninitialized_variables/IsVariableInitialized_185"
  input: "report_uninitialized_variables/IsVariableInitialized_186"
  input: "report_uninitialized_variables/IsVariableInitialized_187"
  input: "report_uninitialized_variables/IsVariableInitialized_188"
  input: "report_uninitialized_variables/IsVariableInitialized_189"
  input: "report_uninitialized_variables/IsVariableInitialized_190"
  input: "report_uninitialized_variables/IsVariableInitialized_191"
  input: "report_uninitialized_variables/IsVariableInitialized_192"
  input: "report_uninitialized_variables/IsVariableInitialized_193"
  input: "report_uninitialized_variables/IsVariableInitialized_194"
  input: "report_uninitialized_variables/IsVariableInitialized_195"
  input: "report_uninitialized_variables/IsVariableInitialized_196"
  input: "report_uninitialized_variables/IsVariableInitialized_197"
  input: "report_uninitialized_variables/IsVariableInitialized_198"
  input: "report_uninitialized_variables/IsVariableInitialized_199"
  input: "report_uninitialized_variables/IsVariableInitialized_200"
  input: "report_uninitialized_variables/IsVariableInitialized_201"
  input: "report_uninitialized_variables/IsVariableInitialized_202"
  input: "report_uninitialized_variables/IsVariableInitialized_203"
  input: "report_uninitialized_variables/IsVariableInitialized_204"
  input: "report_uninitialized_variables/IsVariableInitialized_205"
  input: "report_uninitialized_variables/IsVariableInitialized_206"
  input: "report_uninitialized_variables/IsVariableInitialized_207"
  input: "report_uninitialized_variables/IsVariableInitialized_208"
  input: "report_uninitialized_variables/IsVariableInitialized_209"
  input: "report_uninitialized_variables/IsVariableInitialized_210"
  input: "report_uninitialized_variables/IsVariableInitialized_211"
  input: "report_uninitialized_variables/IsVariableInitialized_212"
  input: "report_uninitialized_variables/IsVariableInitialized_213"
  input: "report_uninitialized_variables/IsVariableInitialized_214"
  input: "report_uninitialized_variables/IsVariableInitialized_215"
  input: "report_uninitialized_variables/IsVariableInitialized_216"
  input: "report_uninitialized_variables/IsVariableInitialized_217"
  input: "report_uninitialized_variables/IsVariableInitialized_218"
  input: "report_uninitialized_variables/IsVariableInitialized_219"
  input: "report_uninitialized_variables/IsVariableInitialized_220"
  input: "report_uninitialized_variables/IsVariableInitialized_221"
  input: "report_uninitialized_variables/IsVariableInitialized_222"
  input: "report_uninitialized_variables/IsVariableInitialized_223"
  input: "report_uninitialized_variables/IsVariableInitialized_224"
  input: "report_uninitialized_variables/IsVariableInitialized_225"
  input: "report_uninitialized_variables/IsVariableInitialized_226"
  input: "report_uninitialized_variables/IsVariableInitialized_227"
  input: "report_uninitialized_variables/IsVariableInitialized_228"
  input: "report_uninitialized_variables/IsVariableInitialized_229"
  input: "report_uninitialized_variables/IsVariableInitialized_230"
  input: "report_uninitialized_variables/IsVariableInitialized_231"
  input: "report_uninitialized_variables/IsVariableInitialized_232"
  input: "report_uninitialized_variables/IsVariableInitialized_233"
  input: "report_uninitialized_variables/IsVariableInitialized_234"
  input: "report_uninitialized_variables/IsVariableInitialized_235"
  input: "report_uninitialized_variables/IsVariableInitialized_236"
  input: "report_uninitialized_variables/IsVariableInitialized_237"
  input: "report_uninitialized_variables/IsVariableInitialized_238"
  input: "report_uninitialized_variables/IsVariableInitialized_239"
  input: "report_uninitialized_variables/IsVariableInitialized_240"
  input: "report_uninitialized_variables/IsVariableInitialized_241"
  input: "report_uninitialized_variables/IsVariableInitialized_242"
  input: "report_uninitialized_variables/IsVariableInitialized_243"
  input: "report_uninitialized_variables/IsVariableInitialized_244"
  input: "report_uninitialized_variables/IsVariableInitialized_245"
  input: "report_uninitialized_variables/IsVariableInitialized_246"
  input: "report_uninitialized_variables/IsVariableInitialized_247"
  input: "report_uninitialized_variables/IsVariableInitialized_248"
  input: "report_uninitialized_variables/IsVariableInitialized_249"
  input: "report_uninitialized_variables/IsVariableInitialized_250"
  input: "report_uninitialized_variables/IsVariableInitialized_251"
  input: "report_uninitialized_variables/IsVariableInitialized_252"
  input: "report_uninitialized_variables/IsVariableInitialized_253"
  input: "report_uninitialized_variables/IsVariableInitialized_254"
  input: "report_uninitialized_variables/IsVariableInitialized_255"
  input: "report_uninitialized_variables/IsVariableInitialized_256"
  input: "report_uninitialized_variables/IsVariableInitialized_257"
  input: "report_uninitialized_variables/IsVariableInitialized_258"
  input: "report_uninitialized_variables/IsVariableInitialized_259"
  input: "report_uninitialized_variables/IsVariableInitialized_260"
  input: "report_uninitialized_variables/IsVariableInitialized_261"
  input: "report_uninitialized_variables/IsVariableInitialized_262"
  input: "report_uninitialized_variables/IsVariableInitialized_263"
  input: "report_uninitialized_variables/IsVariableInitialized_264"
  input: "report_uninitialized_variables/IsVariableInitialized_265"
  input: "report_uninitialized_variables/IsVariableInitialized_266"
  input: "report_uninitialized_variables/IsVariableInitialized_267"
  input: "report_uninitialized_variables/IsVariableInitialized_268"
  input: "report_uninitialized_variables/IsVariableInitialized_269"
  input: "report_uninitialized_variables/IsVariableInitialized_270"
  input: "report_uninitialized_variables/IsVariableInitialized_271"
  input: "report_uninitialized_variables/IsVariableInitialized_272"
  input: "report_uninitialized_variables/IsVariableInitialized_273"
  input: "report_uninitialized_variables/IsVariableInitialized_274"
  input: "report_uninitialized_variables/IsVariableInitialized_275"
  input: "report_uninitialized_variables/IsVariableInitialized_276"
  attr {
    key: "N"
    value {
      i: 277
    }
  }
  attr {
    key: "T"
    value {
      type: DT_BOOL
    }
  }
  attr {
    key: "_output_shapes"
    value {
      list {
        shape {
          dim {
            size: 277
          }
        }
      }
    }
  }
  attr {
    key: "axis"
    value {
      i: 0
    }
  }
}
node {
  name: "report_uninitialized_variables/LogicalNot"
  op: "LogicalNot"
  input: "report_uninitialized_variables/pack"
  attr {
    key: "_output_shapes"
    value {
      list {
        shape {
          dim {
            size: 277
          }
        }
      }
    }
  }
}
node {
  name: "report_uninitialized_variables/Const"
  op: "Const"
  attr {
    key: "_output_shapes"
    value {
      list {
        shape {
          dim {
            size: 277
          }
        }
      }
    }
  }
  attr {
    key: "dtype"
    value {
      type: DT_STRING
    }
  }
  attr {
    key: "value"
    value {
      tensor {
        dtype: DT_STRING
        tensor_shape {
          dim {
            size: 277
          }
        }
        string_val: "global_step"
        string_val: "resnet_v2_50/conv1/weights"
        string_val: "resnet_v2_50/conv1/biases"
        string_val: "resnet_v2_50/block1/unit_1/bottleneck_v2/preact/beta"
        string_val: "resnet_v2_50/block1/unit_1/bottleneck_v2/preact/gamma"
        string_val: "resnet_v2_50/block1/unit_1/bottleneck_v2/preact/moving_mean"
        string_val: "resnet_v2_50/block1/unit_1/bottleneck_v2/preact/moving_variance"
        string_val: "resnet_v2_50/block1/unit_1/bottleneck_v2/shortcut/weights"
        string_val: "resnet_v2_50/block1/unit_1/bottleneck_v2/shortcut/biases"
        string_val: "resnet_v2_50/block1/unit_1/bottleneck_v2/conv1/weights"
        string_val: "resnet_v2_50/block1/unit_1/bottleneck_v2/conv1/BatchNorm/beta"
        string_val: "resnet_v2_50/block1/unit_1/bottleneck_v2/conv1/BatchNorm/gamma"
        string_val: "resnet_v2_50/block1/unit_1/bottleneck_v2/conv1/BatchNorm/moving_mean"
        string_val: "resnet_v2_50/block1/unit_1/bottleneck_v2/conv1/BatchNorm/moving_variance"
        string_val: "resnet_v2_50/block1/unit_1/bottleneck_v2/conv2/weights"
        string_val: "resnet_v2_50/block1/unit_1/bottleneck_v2/conv2/BatchNorm/beta"
        string_val: "resnet_v2_50/block1/unit_1/bottleneck_v2/conv2/BatchNorm/gamma"
        string_val: "resnet_v2_50/block1/unit_1/bottleneck_v2/conv2/BatchNorm/moving_mean"
        string_val: "resnet_v2_50/block1/unit_1/bottleneck_v2/conv2/BatchNorm/moving_variance"
        string_val: "resnet_v2_50/block1/unit_1/bottleneck_v2/conv3/weights"
        string_val: "resnet_v2_50/block1/unit_1/bottleneck_v2/conv3/biases"
        string_val: "resnet_v2_50/block1/unit_2/bottleneck_v2/preact/beta"
        string_val: "resnet_v2_50/block1/unit_2/bottleneck_v2/preact/gamma"
        string_val: "resnet_v2_50/block1/unit_2/bottleneck_v2/preact/moving_mean"
        string_val: "resnet_v2_50/block1/unit_2/bottleneck_v2/preact/moving_variance"
        string_val: "resnet_v2_50/block1/unit_2/bottleneck_v2/conv1/weights"
        string_val: "resnet_v2_50/block1/unit_2/bottleneck_v2/conv1/BatchNorm/beta"
        string_val: "resnet_v2_50/block1/unit_2/bottleneck_v2/conv1/BatchNorm/gamma"
        string_val: "resnet_v2_50/block1/unit_2/bottleneck_v2/conv1/BatchNorm/moving_mean"
        string_val: "resnet_v2_50/block1/unit_2/bottleneck_v2/conv1/BatchNorm/moving_variance"
        string_val: "resnet_v2_50/block1/unit_2/bottleneck_v2/conv2/weights"
        string_val: "resnet_v2_50/block1/unit_2/bottleneck_v2/conv2/BatchNorm/beta"
        string_val: "resnet_v2_50/block1/unit_2/bottleneck_v2/conv2/BatchNorm/gamma"
        string_val: "resnet_v2_50/block1/unit_2/bottleneck_v2/conv2/BatchNorm/moving_mean"
        string_val: "resnet_v2_50/block1/unit_2/bottleneck_v2/conv2/BatchNorm/moving_variance"
        string_val: "resnet_v2_50/block1/unit_2/bottleneck_v2/conv3/weights"
        string_val: "resnet_v2_50/block1/unit_2/bottleneck_v2/conv3/biases"
        string_val: "resnet_v2_50/block1/unit_3/bottleneck_v2/preact/beta"
        string_val: "resnet_v2_50/block1/unit_3/bottleneck_v2/preact/gamma"
        string_val: "resnet_v2_50/block1/unit_3/bottleneck_v2/preact/moving_mean"
        string_val: "resnet_v2_50/block1/unit_3/bottleneck_v2/preact/moving_variance"
        string_val: "resnet_v2_50/block1/unit_3/bottleneck_v2/conv1/weights"
        string_val: "resnet_v2_50/block1/unit_3/bottleneck_v2/conv1/BatchNorm/beta"
        string_val: "resnet_v2_50/block1/unit_3/bottleneck_v2/conv1/BatchNorm/gamma"
        string_val: "resnet_v2_50/block1/unit_3/bottleneck_v2/conv1/BatchNorm/moving_mean"
        string_val: "resnet_v2_50/block1/unit_3/bottleneck_v2/conv1/BatchNorm/moving_variance"
        string_val: "resnet_v2_50/block1/unit_3/bottleneck_v2/conv2/weights"
        string_val: "resnet_v2_50/block1/unit_3/bottleneck_v2/conv2/BatchNorm/beta"
        string_val: "resnet_v2_50/block1/unit_3/bottleneck_v2/conv2/BatchNorm/gamma"
        string_val: "resnet_v2_50/block1/unit_3/bottleneck_v2/conv2/BatchNorm/moving_mean"
        string_val: "resnet_v2_50/block1/unit_3/bottleneck_v2/conv2/BatchNorm/moving_variance"
        string_val: "resnet_v2_50/block1/unit_3/bottleneck_v2/conv3/weights"
        string_val: "resnet_v2_50/block1/unit_3/bottleneck_v2/conv3/biases"
        string_val: "resnet_v2_50/block2/unit_1/bottleneck_v2/preact/beta"
        string_val: "resnet_v2_50/block2/unit_1/bottleneck_v2/preact/gamma"
        string_val: "resnet_v2_50/block2/unit_1/bottleneck_v2/preact/moving_mean"
        string_val: "resnet_v2_50/block2/unit_1/bottleneck_v2/preact/moving_variance"
        string_val: "resnet_v2_50/block2/unit_1/bottleneck_v2/shortcut/weights"
        string_val: "resnet_v2_50/block2/unit_1/bottleneck_v2/shortcut/biases"
        string_val: "resnet_v2_50/block2/unit_1/bottleneck_v2/conv1/weights"
        string_val: "resnet_v2_50/block2/unit_1/bottleneck_v2/conv1/BatchNorm/beta"
        string_val: "resnet_v2_50/block2/unit_1/bottleneck_v2/conv1/BatchNorm/gamma"
        string_val: "resnet_v2_50/block2/unit_1/bottleneck_v2/conv1/BatchNorm/moving_mean"
        string_val: "resnet_v2_50/block2/unit_1/bottleneck_v2/conv1/BatchNorm/moving_variance"
        string_val: "resnet_v2_50/block2/unit_1/bottleneck_v2/conv2/weights"
        string_val: "resnet_v2_50/block2/unit_1/bottleneck_v2/conv2/BatchNorm/beta"
        string_val: "resnet_v2_50/block2/unit_1/bottleneck_v2/conv2/BatchNorm/gamma"
        string_val: "resnet_v2_50/block2/unit_1/bottleneck_v2/conv2/BatchNorm/moving_mean"
        string_val: "resnet_v2_50/block2/unit_1/bottleneck_v2/conv2/BatchNorm/moving_variance"
        string_val: "resnet_v2_50/block2/unit_1/bottleneck_v2/conv3/weights"
        string_val: "resnet_v2_50/block2/unit_1/bottleneck_v2/conv3/biases"
        string_val: "resnet_v2_50/block2/unit_2/bottleneck_v2/preact/beta"
        string_val: "resnet_v2_50/block2/unit_2/bottleneck_v2/preact/gamma"
        string_val: "resnet_v2_50/block2/unit_2/bottleneck_v2/preact/moving_mean"
        string_val: "resnet_v2_50/block2/unit_2/bottleneck_v2/preact/moving_variance"
        string_val: "resnet_v2_50/block2/unit_2/bottleneck_v2/conv1/weights"
        string_val: "resnet_v2_50/block2/unit_2/bottleneck_v2/conv1/BatchNorm/beta"
        string_val: "resnet_v2_50/block2/unit_2/bottleneck_v2/conv1/BatchNorm/gamma"
        string_val: "resnet_v2_50/block2/unit_2/bottleneck_v2/conv1/BatchNorm/moving_mean"
        string_val: "resnet_v2_50/block2/unit_2/bottleneck_v2/conv1/BatchNorm/moving_variance"
        string_val: "resnet_v2_50/block2/unit_2/bottleneck_v2/conv2/weights"
        string_val: "resnet_v2_50/block2/unit_2/bottleneck_v2/conv2/BatchNorm/beta"
        string_val: "resnet_v2_50/block2/unit_2/bottleneck_v2/conv2/BatchNorm/gamma"
        string_val: "resnet_v2_50/block2/unit_2/bottleneck_v2/conv2/BatchNorm/moving_mean"
        string_val: "resnet_v2_50/block2/unit_2/bottleneck_v2/conv2/BatchNorm/moving_variance"
        string_val: "resnet_v2_50/block2/unit_2/bottleneck_v2/conv3/weights"
        string_val: "resnet_v2_50/block2/unit_2/bottleneck_v2/conv3/biases"
        string_val: "resnet_v2_50/block2/unit_3/bottleneck_v2/preact/beta"
        string_val: "resnet_v2_50/block2/unit_3/bottleneck_v2/preact/gamma"
        string_val: "resnet_v2_50/block2/unit_3/bottleneck_v2/preact/moving_mean"
        string_val: "resnet_v2_50/block2/unit_3/bottleneck_v2/preact/moving_variance"
        string_val: "resnet_v2_50/block2/unit_3/bottleneck_v2/conv1/weights"
        string_val: "resnet_v2_50/block2/unit_3/bottleneck_v2/conv1/BatchNorm/beta"
        string_val: "resnet_v2_50/block2/unit_3/bottleneck_v2/conv1/BatchNorm/gamma"
        string_val: "resnet_v2_50/block2/unit_3/bottleneck_v2/conv1/BatchNorm/moving_mean"
        string_val: "resnet_v2_50/block2/unit_3/bottleneck_v2/conv1/BatchNorm/moving_variance"
        string_val: "resnet_v2_50/block2/unit_3/bottleneck_v2/conv2/weights"
        string_val: "resnet_v2_50/block2/unit_3/bottleneck_v2/conv2/BatchNorm/beta"
        string_val: "resnet_v2_50/block2/unit_3/bottleneck_v2/conv2/BatchNorm/gamma"
        string_val: "resnet_v2_50/block2/unit_3/bottleneck_v2/conv2/BatchNorm/moving_mean"
        string_val: "resnet_v2_50/block2/unit_3/bottleneck_v2/conv2/BatchNorm/moving_variance"
        string_val: "resnet_v2_50/block2/unit_3/bottleneck_v2/conv3/weights"
        string_val: "resnet_v2_50/block2/unit_3/bottleneck_v2/conv3/biases"
        string_val: "resnet_v2_50/block2/unit_4/bottleneck_v2/preact/beta"
        string_val: "resnet_v2_50/block2/unit_4/bottleneck_v2/preact/gamma"
        string_val: "resnet_v2_50/block2/unit_4/bottleneck_v2/preact/moving_mean"
        string_val: "resnet_v2_50/block2/unit_4/bottleneck_v2/preact/moving_variance"
        string_val: "resnet_v2_50/block2/unit_4/bottleneck_v2/conv1/weights"
        string_val: "resnet_v2_50/block2/unit_4/bottleneck_v2/conv1/BatchNorm/beta"
        string_val: "resnet_v2_50/block2/unit_4/bottleneck_v2/conv1/BatchNorm/gamma"
        string_val: "resnet_v2_50/block2/unit_4/bottleneck_v2/conv1/BatchNorm/moving_mean"
        string_val: "resnet_v2_50/block2/unit_4/bottleneck_v2/conv1/BatchNorm/moving_variance"
        string_val: "resnet_v2_50/block2/unit_4/bottleneck_v2/conv2/weights"
        string_val: "resnet_v2_50/block2/unit_4/bottleneck_v2/conv2/BatchNorm/beta"
        string_val: "resnet_v2_50/block2/unit_4/bottleneck_v2/conv2/BatchNorm/gamma"
        string_val: "resnet_v2_50/block2/unit_4/bottleneck_v2/conv2/BatchNorm/moving_mean"
        string_val: "resnet_v2_50/block2/unit_4/bottleneck_v2/conv2/BatchNorm/moving_variance"
        string_val: "resnet_v2_50/block2/unit_4/bottleneck_v2/conv3/weights"
        string_val: "resnet_v2_50/block2/unit_4/bottleneck_v2/conv3/biases"
        string_val: "resnet_v2_50/block3/unit_1/bottleneck_v2/preact/beta"
        string_val: "resnet_v2_50/block3/unit_1/bottleneck_v2/preact/gamma"
        string_val: "resnet_v2_50/block3/unit_1/bottleneck_v2/preact/moving_mean"
        string_val: "resnet_v2_50/block3/unit_1/bottleneck_v2/preact/moving_variance"
        string_val: "resnet_v2_50/block3/unit_1/bottleneck_v2/shortcut/weights"
        string_val: "resnet_v2_50/block3/unit_1/bottleneck_v2/shortcut/biases"
        string_val: "resnet_v2_50/block3/unit_1/bottleneck_v2/conv1/weights"
        string_val: "resnet_v2_50/block3/unit_1/bottleneck_v2/conv1/BatchNorm/beta"
        string_val: "resnet_v2_50/block3/unit_1/bottleneck_v2/conv1/BatchNorm/gamma"
        string_val: "resnet_v2_50/block3/unit_1/bottleneck_v2/conv1/BatchNorm/moving_mean"
        string_val: "resnet_v2_50/block3/unit_1/bottleneck_v2/conv1/BatchNorm/moving_variance"
        string_val: "resnet_v2_50/block3/unit_1/bottleneck_v2/conv2/weights"
        string_val: "resnet_v2_50/block3/unit_1/bottleneck_v2/conv2/BatchNorm/beta"
        string_val: "resnet_v2_50/block3/unit_1/bottleneck_v2/conv2/BatchNorm/gamma"
        string_val: "resnet_v2_50/block3/unit_1/bottleneck_v2/conv2/BatchNorm/moving_mean"
        string_val: "resnet_v2_50/block3/unit_1/bottleneck_v2/conv2/BatchNorm/moving_variance"
        string_val: "resnet_v2_50/block3/unit_1/bottleneck_v2/conv3/weights"
        string_val: "resnet_v2_50/block3/unit_1/bottleneck_v2/conv3/biases"
        string_val: "resnet_v2_50/block3/unit_2/bottleneck_v2/preact/beta"
        string_val: "resnet_v2_50/block3/unit_2/bottleneck_v2/preact/gamma"
        string_val: "resnet_v2_50/block3/unit_2/bottleneck_v2/preact/moving_mean"
        string_val: "resnet_v2_50/block3/unit_2/bottleneck_v2/preact/moving_variance"
        string_val: "resnet_v2_50/block3/unit_2/bottleneck_v2/conv1/weights"
        string_val: "resnet_v2_50/block3/unit_2/bottleneck_v2/conv1/BatchNorm/beta"
        string_val: "resnet_v2_50/block3/unit_2/bottleneck_v2/conv1/BatchNorm/gamma"
        string_val: "resnet_v2_50/block3/unit_2/bottleneck_v2/conv1/BatchNorm/moving_mean"
        string_val: "resnet_v2_50/block3/unit_2/bottleneck_v2/conv1/BatchNorm/moving_variance"
        string_val: "resnet_v2_50/block3/unit_2/bottleneck_v2/conv2/weights"
        string_val: "resnet_v2_50/block3/unit_2/bottleneck_v2/conv2/BatchNorm/beta"
        string_val: "resnet_v2_50/block3/unit_2/bottleneck_v2/conv2/BatchNorm/gamma"
        string_val: "resnet_v2_50/block3/unit_2/bottleneck_v2/conv2/BatchNorm/moving_mean"
        string_val: "resnet_v2_50/block3/unit_2/bottleneck_v2/conv2/BatchNorm/moving_variance"
        string_val: "resnet_v2_50/block3/unit_2/bottleneck_v2/conv3/weights"
        string_val: "resnet_v2_50/block3/unit_2/bottleneck_v2/conv3/biases"
        string_val: "resnet_v2_50/block3/unit_3/bottleneck_v2/preact/beta"
        string_val: "resnet_v2_50/block3/unit_3/bottleneck_v2/preact/gamma"
        string_val: "resnet_v2_50/block3/unit_3/bottleneck_v2/preact/moving_mean"
        string_val: "resnet_v2_50/block3/unit_3/bottleneck_v2/preact/moving_variance"
        string_val: "resnet_v2_50/block3/unit_3/bottleneck_v2/conv1/weights"
        string_val: "resnet_v2_50/block3/unit_3/bottleneck_v2/conv1/BatchNorm/beta"
        string_val: "resnet_v2_50/block3/unit_3/bottleneck_v2/conv1/BatchNorm/gamma"
        string_val: "resnet_v2_50/block3/unit_3/bottleneck_v2/conv1/BatchNorm/moving_mean"
        string_val: "resnet_v2_50/block3/unit_3/bottleneck_v2/conv1/BatchNorm/moving_variance"
        string_val: "resnet_v2_50/block3/unit_3/bottleneck_v2/conv2/weights"
        string_val: "resnet_v2_50/block3/unit_3/bottleneck_v2/conv2/BatchNorm/beta"
        string_val: "resnet_v2_50/block3/unit_3/bottleneck_v2/conv2/BatchNorm/gamma"
        string_val: "resnet_v2_50/block3/unit_3/bottleneck_v2/conv2/BatchNorm/moving_mean"
        string_val: "resnet_v2_50/block3/unit_3/bottleneck_v2/conv2/BatchNorm/moving_variance"
        string_val: "resnet_v2_50/block3/unit_3/bottleneck_v2/conv3/weights"
        string_val: "resnet_v2_50/block3/unit_3/bottleneck_v2/conv3/biases"
        string_val: "resnet_v2_50/block3/unit_4/bottleneck_v2/preact/beta"
        string_val: "resnet_v2_50/block3/unit_4/bottleneck_v2/preact/gamma"
        string_val: "resnet_v2_50/block3/unit_4/bottleneck_v2/preact/moving_mean"
        string_val: "resnet_v2_50/block3/unit_4/bottleneck_v2/preact/moving_variance"
        string_val: "resnet_v2_50/block3/unit_4/bottleneck_v2/conv1/weights"
        string_val: "resnet_v2_50/block3/unit_4/bottleneck_v2/conv1/BatchNorm/beta"
        string_val: "resnet_v2_50/block3/unit_4/bottleneck_v2/conv1/BatchNorm/gamma"
        string_val: "resnet_v2_50/block3/unit_4/bottleneck_v2/conv1/BatchNorm/moving_mean"
        string_val: "resnet_v2_50/block3/unit_4/bottleneck_v2/conv1/BatchNorm/moving_variance"
        string_val: "resnet_v2_50/block3/unit_4/bottleneck_v2/conv2/weights"
        string_val: "resnet_v2_50/block3/unit_4/bottleneck_v2/conv2/BatchNorm/beta"
        string_val: "resnet_v2_50/block3/unit_4/bottleneck_v2/conv2/BatchNorm/gamma"
        string_val: "resnet_v2_50/block3/unit_4/bottleneck_v2/conv2/BatchNorm/moving_mean"
        string_val: "resnet_v2_50/block3/unit_4/bottleneck_v2/conv2/BatchNorm/moving_variance"
        string_val: "resnet_v2_50/block3/unit_4/bottleneck_v2/conv3/weights"
        string_val: "resnet_v2_50/block3/unit_4/bottleneck_v2/conv3/biases"
        string_val: "resnet_v2_50/block3/unit_5/bottleneck_v2/preact/beta"
        string_val: "resnet_v2_50/block3/unit_5/bottleneck_v2/preact/gamma"
        string_val: "resnet_v2_50/block3/unit_5/bottleneck_v2/preact/moving_mean"
        string_val: "resnet_v2_50/block3/unit_5/bottleneck_v2/preact/moving_variance"
        string_val: "resnet_v2_50/block3/unit_5/bottleneck_v2/conv1/weights"
        string_val: "resnet_v2_50/block3/unit_5/bottleneck_v2/conv1/BatchNorm/beta"
        string_val: "resnet_v2_50/block3/unit_5/bottleneck_v2/conv1/BatchNorm/gamma"
        string_val: "resnet_v2_50/block3/unit_5/bottleneck_v2/conv1/BatchNorm/moving_mean"
        string_val: "resnet_v2_50/block3/unit_5/bottleneck_v2/conv1/BatchNorm/moving_variance"
        string_val: "resnet_v2_50/block3/unit_5/bottleneck_v2/conv2/weights"
        string_val: "resnet_v2_50/block3/unit_5/bottleneck_v2/conv2/BatchNorm/beta"
        string_val: "resnet_v2_50/block3/unit_5/bottleneck_v2/conv2/BatchNorm/gamma"
        string_val: "resnet_v2_50/block3/unit_5/bottleneck_v2/conv2/BatchNorm/moving_mean"
        string_val: "resnet_v2_50/block3/unit_5/bottleneck_v2/conv2/BatchNorm/moving_variance"
        string_val: "resnet_v2_50/block3/unit_5/bottleneck_v2/conv3/weights"
        string_val: "resnet_v2_50/block3/unit_5/bottleneck_v2/conv3/biases"
        string_val: "resnet_v2_50/block3/unit_6/bottleneck_v2/preact/beta"
        string_val: "resnet_v2_50/block3/unit_6/bottleneck_v2/preact/gamma"
        string_val: "resnet_v2_50/block3/unit_6/bottleneck_v2/preact/moving_mean"
        string_val: "resnet_v2_50/block3/unit_6/bottleneck_v2/preact/moving_variance"
        string_val: "resnet_v2_50/block3/unit_6/bottleneck_v2/conv1/weights"
        string_val: "resnet_v2_50/block3/unit_6/bottleneck_v2/conv1/BatchNorm/beta"
        string_val: "resnet_v2_50/block3/unit_6/bottleneck_v2/conv1/BatchNorm/gamma"
        string_val: "resnet_v2_50/block3/unit_6/bottleneck_v2/conv1/BatchNorm/moving_mean"
        string_val: "resnet_v2_50/block3/unit_6/bottleneck_v2/conv1/BatchNorm/moving_variance"
        string_val: "resnet_v2_50/block3/unit_6/bottleneck_v2/conv2/weights"
        string_val: "resnet_v2_50/block3/unit_6/bottleneck_v2/conv2/BatchNorm/beta"
        string_val: "resnet_v2_50/block3/unit_6/bottleneck_v2/conv2/BatchNorm/gamma"
        string_val: "resnet_v2_50/block3/unit_6/bottleneck_v2/conv2/BatchNorm/moving_mean"
        string_val: "resnet_v2_50/block3/unit_6/bottleneck_v2/conv2/BatchNorm/moving_variance"
        string_val: "resnet_v2_50/block3/unit_6/bottleneck_v2/conv3/weights"
        string_val: "resnet_v2_50/block3/unit_6/bottleneck_v2/conv3/biases"
        string_val: "resnet_v2_50/block4/unit_1/bottleneck_v2/preact/beta"
        string_val: "resnet_v2_50/block4/unit_1/bottleneck_v2/preact/gamma"
        string_val: "resnet_v2_50/block4/unit_1/bottleneck_v2/preact/moving_mean"
        string_val: "resnet_v2_50/block4/unit_1/bottleneck_v2/preact/moving_variance"
        string_val: "resnet_v2_50/block4/unit_1/bottleneck_v2/shortcut/weights"
        string_val: "resnet_v2_50/block4/unit_1/bottleneck_v2/shortcut/biases"
        string_val: "resnet_v2_50/block4/unit_1/bottleneck_v2/conv1/weights"
        string_val: "resnet_v2_50/block4/unit_1/bottleneck_v2/conv1/BatchNorm/beta"
        string_val: "resnet_v2_50/block4/unit_1/bottleneck_v2/conv1/BatchNorm/gamma"
        string_val: "resnet_v2_50/block4/unit_1/bottleneck_v2/conv1/BatchNorm/moving_mean"
        string_val: "resnet_v2_50/block4/unit_1/bottleneck_v2/conv1/BatchNorm/moving_variance"
        string_val: "resnet_v2_50/block4/unit_1/bottleneck_v2/conv2/weights"
        string_val: "resnet_v2_50/block4/unit_1/bottleneck_v2/conv2/BatchNorm/beta"
        string_val: "resnet_v2_50/block4/unit_1/bottleneck_v2/conv2/BatchNorm/gamma"
        string_val: "resnet_v2_50/block4/unit_1/bottleneck_v2/conv2/BatchNorm/moving_mean"
        string_val: "resnet_v2_50/block4/unit_1/bottleneck_v2/conv2/BatchNorm/moving_variance"
        string_val: "resnet_v2_50/block4/unit_1/bottleneck_v2/conv3/weights"
        string_val: "resnet_v2_50/block4/unit_1/bottleneck_v2/conv3/biases"
        string_val: "resnet_v2_50/block4/unit_2/bottleneck_v2/preact/beta"
        string_val: "resnet_v2_50/block4/unit_2/bottleneck_v2/preact/gamma"
        string_val: "resnet_v2_50/block4/unit_2/bottleneck_v2/preact/moving_mean"
        string_val: "resnet_v2_50/block4/unit_2/bottleneck_v2/preact/moving_variance"
        string_val: "resnet_v2_50/block4/unit_2/bottleneck_v2/conv1/weights"
        string_val: "resnet_v2_50/block4/unit_2/bottleneck_v2/conv1/BatchNorm/beta"
        string_val: "resnet_v2_50/block4/unit_2/bottleneck_v2/conv1/BatchNorm/gamma"
        string_val: "resnet_v2_50/block4/unit_2/bottleneck_v2/conv1/BatchNorm/moving_mean"
        string_val: "resnet_v2_50/block4/unit_2/bottleneck_v2/conv1/BatchNorm/moving_variance"
        string_val: "resnet_v2_50/block4/unit_2/bottleneck_v2/conv2/weights"
        string_val: "resnet_v2_50/block4/unit_2/bottleneck_v2/conv2/BatchNorm/beta"
        string_val: "resnet_v2_50/block4/unit_2/bottleneck_v2/conv2/BatchNorm/gamma"
        string_val: "resnet_v2_50/block4/unit_2/bottleneck_v2/conv2/BatchNorm/moving_mean"
        string_val: "resnet_v2_50/block4/unit_2/bottleneck_v2/conv2/BatchNorm/moving_variance"
        string_val: "resnet_v2_50/block4/unit_2/bottleneck_v2/conv3/weights"
        string_val: "resnet_v2_50/block4/unit_2/bottleneck_v2/conv3/biases"
        string_val: "resnet_v2_50/block4/unit_3/bottleneck_v2/preact/beta"
        string_val: "resnet_v2_50/block4/unit_3/bottleneck_v2/preact/gamma"
        string_val: "resnet_v2_50/block4/unit_3/bottleneck_v2/preact/moving_mean"
        string_val: "resnet_v2_50/block4/unit_3/bottleneck_v2/preact/moving_variance"
        string_val: "resnet_v2_50/block4/unit_3/bottleneck_v2/conv1/weights"
        string_val: "resnet_v2_50/block4/unit_3/bottleneck_v2/conv1/BatchNorm/beta"
        string_val: "resnet_v2_50/block4/unit_3/bottleneck_v2/conv1/BatchNorm/gamma"
        string_val: "resnet_v2_50/block4/unit_3/bottleneck_v2/conv1/BatchNorm/moving_mean"
        string_val: "resnet_v2_50/block4/unit_3/bottleneck_v2/conv1/BatchNorm/moving_variance"
        string_val: "resnet_v2_50/block4/unit_3/bottleneck_v2/conv2/weights"
        string_val: "resnet_v2_50/block4/unit_3/bottleneck_v2/conv2/BatchNorm/beta"
        string_val: "resnet_v2_50/block4/unit_3/bottleneck_v2/conv2/BatchNorm/gamma"
        string_val: "resnet_v2_50/block4/unit_3/bottleneck_v2/conv2/BatchNorm/moving_mean"
        string_val: "resnet_v2_50/block4/unit_3/bottleneck_v2/conv2/BatchNorm/moving_variance"
        string_val: "resnet_v2_50/block4/unit_3/bottleneck_v2/conv3/weights"
        string_val: "resnet_v2_50/block4/unit_3/bottleneck_v2/conv3/biases"
        string_val: "resnet_v2_50/postnorm/beta"
        string_val: "resnet_v2_50/postnorm/gamma"
        string_val: "resnet_v2_50/postnorm/moving_mean"
        string_val: "resnet_v2_50/postnorm/moving_variance"
        string_val: "resnet_v2_50/logits/weights"
        string_val: "resnet_v2_50/logits/biases"
        string_val: "accuracy/total"
        string_val: "accuracy/count"
        string_val: "recall_at_5/total"
        string_val: "recall_at_5/count"
      }
    }
  }
}
node {
  name: "report_uninitialized_variables/boolean_mask/Shape"
  op: "Const"
  attr {
    key: "_output_shapes"
    value {
      list {
        shape {
          dim {
            size: 1
          }
        }
      }
    }
  }
  attr {
    key: "dtype"
    value {
      type: DT_INT32
    }
  }
  attr {
    key: "value"
    value {
      tensor {
        dtype: DT_INT32
        tensor_shape {
          dim {
            size: 1
          }
        }
        int_val: 277
      }
    }
  }
}
node {
  name: "report_uninitialized_variables/boolean_mask/strided_slice/pack"
  op: "Const"
  attr {
    key: "_output_shapes"
    value {
      list {
        shape {
          dim {
            size: 1
          }
        }
      }
    }
  }
  attr {
    key: "dtype"
    value {
      type: DT_INT32
    }
  }
  attr {
    key: "value"
    value {
      tensor {
        dtype: DT_INT32
        tensor_shape {
          dim {
            size: 1
          }
        }
        int_val: 1
      }
    }
  }
}
node {
  name: "report_uninitialized_variables/boolean_mask/strided_slice/pack_1"
  op: "Const"
  attr {
    key: "_output_shapes"
    value {
      list {
        shape {
          dim {
            size: 1
          }
        }
      }
    }
  }
  attr {
    key: "dtype"
    value {
      type: DT_INT32
    }
  }
  attr {
    key: "value"
    value {
      tensor {
        dtype: DT_INT32
        tensor_shape {
          dim {
            size: 1
          }
        }
        int_val: 0
      }
    }
  }
}
node {
  name: "report_uninitialized_variables/boolean_mask/strided_slice/pack_2"
  op: "Const"
  attr {
    key: "_output_shapes"
    value {
      list {
        shape {
          dim {
            size: 1
          }
        }
      }
    }
  }
  attr {
    key: "dtype"
    value {
      type: DT_INT32
    }
  }
  attr {
    key: "value"
    value {
      tensor {
        dtype: DT_INT32
        tensor_shape {
          dim {
            size: 1
          }
        }
        int_val: 1
      }
    }
  }
}
node {
  name: "report_uninitialized_variables/boolean_mask/strided_slice"
  op: "StridedSlice"
  input: "report_uninitialized_variables/boolean_mask/Shape"
  input: "report_uninitialized_variables/boolean_mask/strided_slice/pack"
  input: "report_uninitialized_variables/boolean_mask/strided_slice/pack_1"
  input: "report_uninitialized_variables/boolean_mask/strided_slice/pack_2"
  attr {
    key: "Index"
    value {
      type: DT_INT32
    }
  }
  attr {
    key: "T"
    value {
      type: DT_INT32
    }
  }
  attr {
    key: "_output_shapes"
    value {
      list {
        shape {
          dim {
          }
        }
      }
    }
  }
  attr {
    key: "begin_mask"
    value {
      i: 0
    }
  }
  attr {
    key: "ellipsis_mask"
    value {
      i: 0
    }
  }
  attr {
    key: "end_mask"
    value {
      i: 1
    }
  }
  attr {
    key: "new_axis_mask"
    value {
      i: 0
    }
  }
  attr {
    key: "shrink_axis_mask"
    value {
      i: 0
    }
  }
}
node {
  name: "report_uninitialized_variables/boolean_mask/concat/concat_dim"
  op: "Const"
  attr {
    key: "_output_shapes"
    value {
      list {
        shape {
        }
      }
    }
  }
  attr {
    key: "dtype"
    value {
      type: DT_INT32
    }
  }
  attr {
    key: "value"
    value {
      tensor {
        dtype: DT_INT32
        tensor_shape {
        }
        int_val: 0
      }
    }
  }
}
node {
  name: "report_uninitialized_variables/boolean_mask/concat/values_0"
  op: "Const"
  attr {
    key: "_output_shapes"
    value {
      list {
        shape {
          dim {
            size: 1
          }
        }
      }
    }
  }
  attr {
    key: "dtype"
    value {
      type: DT_INT32
    }
  }
  attr {
    key: "value"
    value {
      tensor {
        dtype: DT_INT32
        tensor_shape {
          dim {
            size: 1
          }
        }
        int_val: -1
      }
    }
  }
}
node {
  name: "report_uninitialized_variables/boolean_mask/concat"
  op: "Concat"
  input: "report_uninitialized_variables/boolean_mask/concat/concat_dim"
  input: "report_uninitialized_variables/boolean_mask/concat/values_0"
  input: "report_uninitialized_variables/boolean_mask/strided_slice"
  attr {
    key: "N"
    value {
      i: 2
    }
  }
  attr {
    key: "T"
    value {
      type: DT_INT32
    }
  }
  attr {
    key: "_output_shapes"
    value {
      list {
        shape {
          dim {
            size: 1
          }
        }
      }
    }
  }
}
node {
  name: "report_uninitialized_variables/boolean_mask/Reshape"
  op: "Reshape"
  input: "report_uninitialized_variables/Const"
  input: "report_uninitialized_variables/boolean_mask/concat"
  attr {
    key: "T"
    value {
      type: DT_STRING
    }
  }
  attr {
    key: "_output_shapes"
    value {
      list {
        shape {
          dim {
            size: 277
          }
        }
      }
    }
  }
}
node {
  name: "report_uninitialized_variables/boolean_mask/Reshape_1/shape"
  op: "Const"
  attr {
    key: "_output_shapes"
    value {
      list {
        shape {
          dim {
            size: 1
          }
        }
      }
    }
  }
  attr {
    key: "dtype"
    value {
      type: DT_INT32
    }
  }
  attr {
    key: "value"
    value {
      tensor {
        dtype: DT_INT32
        tensor_shape {
          dim {
            size: 1
          }
        }
        int_val: -1
      }
    }
  }
}
node {
  name: "report_uninitialized_variables/boolean_mask/Reshape_1"
  op: "Reshape"
  input: "report_uninitialized_variables/LogicalNot"
  input: "report_uninitialized_variables/boolean_mask/Reshape_1/shape"
  attr {
    key: "T"
    value {
      type: DT_BOOL
    }
  }
  attr {
    key: "_output_shapes"
    value {
      list {
        shape {
          dim {
            size: 277
          }
        }
      }
    }
  }
}
node {
  name: "report_uninitialized_variables/boolean_mask/Where"
  op: "Where"
  input: "report_uninitialized_variables/boolean_mask/Reshape_1"
  attr {
    key: "_output_shapes"
    value {
      list {
        shape {
          dim {
            size: -1
          }
          dim {
            size: 1
          }
        }
      }
    }
  }
}
node {
  name: "report_uninitialized_variables/boolean_mask/Squeeze"
  op: "Squeeze"
  input: "report_uninitialized_variables/boolean_mask/Where"
  attr {
    key: "T"
    value {
      type: DT_INT64
    }
  }
  attr {
    key: "_output_shapes"
    value {
      list {
        shape {
          dim {
            size: -1
          }
        }
      }
    }
  }
  attr {
    key: "squeeze_dims"
    value {
      list {
        i: 1
      }
    }
  }
}
node {
  name: "report_uninitialized_variables/boolean_mask/Gather"
  op: "Gather"
  input: "report_uninitialized_variables/boolean_mask/Reshape"
  input: "report_uninitialized_variables/boolean_mask/Squeeze"
  attr {
    key: "Tindices"
    value {
      type: DT_INT64
    }
  }
  attr {
    key: "Tparams"
    value {
      type: DT_STRING
    }
  }
  attr {
    key: "_output_shapes"
    value {
      list {
        shape {
          dim {
            size: -1
          }
        }
      }
    }
  }
  attr {
    key: "validate_indices"
    value {
      b: true
    }
  }
}
node {
  name: "init_2"
  op: "NoOp"
  input: "^accuracy/total/Assign"
  input: "^accuracy/count/Assign"
  input: "^recall_at_5/total/Assign"
  input: "^recall_at_5/count/Assign"
}
node {
  name: "init_all_tables_1"
  op: "NoOp"
}
node {
  name: "group_deps_1"
  op: "NoOp"
  input: "^init_2"
  input: "^init_all_tables_1"
}
versions {
  producer: 12
}
